{
    "format": "graph-model",
    "generatedBy": "2.13.1",
    "convertedBy": "TensorFlow.js Converter v3.19.0",
    "signature": {
        "inputs": {
            "images": {
                "name": "images:0",
                "dtype": "DT_FLOAT",
                "tensorShape": {
                    "dim": [
                        {
                            "size": "1"
                        },
                        {
                            "size": "3"
                        },
                        {
                            "size": "1280"
                        },
                        {
                            "size": "1280"
                        }
                    ]
                }
            }
        },
        "outputs": {
            "output0": {
                "name": "Identity:0",
                "dtype": "DT_FLOAT",
                "tensorShape": {
                    "dim": [
                        {
                            "size": "1"
                        },
                        {
                            "size": "12"
                        },
                        {
                            "size": "33600"
                        }
                    ]
                }
            }
        }
    },
    "modelTopology": {
        "node": [
            {
                "name": "ConstantFolding/StatefulPartitionedCall/onnx_tf_prefix_/model.22/Div_1_recip",
                "op": "Const",
                "attr": {
                    "value": {
                        "tensor": {
                            "dtype": "DT_FLOAT",
                            "tensorShape": {}
                        }
                    },
                    "dtype": {
                        "type": "DT_FLOAT"
                    }
                }
            },
            {
                "name": "StatefulPartitionedCall/onnx_tf_prefix_Constant_250",
                "op": "Const",
                "attr": {
                    "dtype": {
                        "type": "DT_FLOAT"
                    },
                    "value": {
                        "tensor": {
                            "dtype": "DT_FLOAT",
                            "tensorShape": {
                                "dim": [
                                    {
                                        "size": "1"
                                    },
                                    {
                                        "size": "2"
                                    },
                                    {
                                        "size": "33600"
                                    }
                                ]
                            }
                        }
                    }
                }
            },
            {
                "name": "StatefulPartitionedCall/zeros_6",
                "op": "Const",
                "attr": {
                    "value": {
                        "tensor": {
                            "dtype": "DT_INT64",
                            "tensorShape": {}
                        }
                    },
                    "dtype": {
                        "type": "DT_INT64"
                    }
                }
            },
            {
                "name": "StatefulPartitionedCall/Const_49",
                "op": "Const",
                "attr": {
                    "value": {
                        "tensor": {
                            "dtype": "DT_INT64",
                            "tensorShape": {}
                        }
                    },
                    "dtype": {
                        "type": "DT_INT64"
                    }
                }
            },
            {
                "name": "StatefulPartitionedCall/Shape_11",
                "op": "Const",
                "attr": {
                    "dtype": {
                        "type": "DT_INT64"
                    },
                    "value": {
                        "tensor": {
                            "dtype": "DT_INT64",
                            "tensorShape": {
                                "dim": [
                                    {
                                        "size": "3"
                                    }
                                ]
                            }
                        }
                    }
                }
            },
            {
                "name": "StatefulPartitionedCall/ExpandDims_1",
                "op": "Const",
                "attr": {
                    "value": {
                        "tensor": {
                            "dtype": "DT_INT64",
                            "tensorShape": {
                                "dim": [
                                    {
                                        "size": "1"
                                    },
                                    {
                                        "size": "1"
                                    }
                                ]
                            }
                        }
                    },
                    "dtype": {
                        "type": "DT_INT64"
                    }
                }
            },
            {
                "name": "StatefulPartitionedCall/Cast_15",
                "op": "Const",
                "attr": {
                    "value": {
                        "tensor": {
                            "dtype": "DT_INT64",
                            "tensorShape": {
                                "dim": [
                                    {
                                        "size": "1"
                                    }
                                ]
                            }
                        }
                    },
                    "dtype": {
                        "type": "DT_INT64"
                    }
                }
            },
            {
                "name": "StatefulPartitionedCall/Const_48",
                "op": "Const",
                "attr": {
                    "value": {
                        "tensor": {
                            "dtype": "DT_INT64",
                            "tensorShape": {}
                        }
                    },
                    "dtype": {
                        "type": "DT_INT64"
                    }
                }
            },
            {
                "name": "StatefulPartitionedCall/ones_1",
                "op": "Const",
                "attr": {
                    "dtype": {
                        "type": "DT_INT64"
                    },
                    "value": {
                        "tensor": {
                            "dtype": "DT_INT64",
                            "tensorShape": {
                                "dim": [
                                    {
                                        "size": "3"
                                    }
                                ]
                            }
                        }
                    }
                }
            },
            {
                "name": "StatefulPartitionedCall/onnx_tf_prefix_Constant_248",
                "op": "Const",
                "attr": {
                    "value": {
                        "tensor": {
                            "dtype": "DT_FLOAT",
                            "tensorShape": {
                                "dim": [
                                    {
                                        "size": "1"
                                    },
                                    {
                                        "size": "2"
                                    },
                                    {
                                        "size": "33600"
                                    }
                                ]
                            }
                        }
                    },
                    "dtype": {
                        "type": "DT_FLOAT"
                    }
                }
            },
            {
                "name": "StatefulPartitionedCall/onnx_tf_prefix_/model.22/dfl/Constant",
                "op": "Const",
                "attr": {
                    "dtype": {
                        "type": "DT_INT64"
                    },
                    "value": {
                        "tensor": {
                            "dtype": "DT_INT64",
                            "tensorShape": {
                                "dim": [
                                    {
                                        "size": "4"
                                    }
                                ]
                            }
                        }
                    }
                }
            },
            {
                "name": "StatefulPartitionedCall/Where_3",
                "op": "Const",
                "attr": {
                    "value": {
                        "tensor": {
                            "dtype": "DT_INT64",
                            "tensorShape": {
                                "dim": [
                                    {},
                                    {
                                        "size": "1"
                                    }
                                ]
                            }
                        }
                    },
                    "dtype": {
                        "type": "DT_INT64"
                    }
                }
            },
            {
                "name": "StatefulPartitionedCall/Cast_7",
                "op": "Const",
                "attr": {
                    "dtype": {
                        "type": "DT_INT64"
                    },
                    "value": {
                        "tensor": {
                            "dtype": "DT_INT64",
                            "tensorShape": {
                                "dim": [
                                    {
                                        "size": "1"
                                    }
                                ]
                            }
                        }
                    }
                }
            },
            {
                "name": "StatefulPartitionedCall/GatherV2_3",
                "op": "Const",
                "attr": {
                    "value": {
                        "tensor": {
                            "dtype": "DT_INT64",
                            "tensorShape": {
                                "dim": [
                                    {}
                                ]
                            }
                        }
                    },
                    "dtype": {
                        "type": "DT_INT64"
                    }
                }
            },
            {
                "name": "StatefulPartitionedCall/zeros_3",
                "op": "Const",
                "attr": {
                    "value": {
                        "tensor": {
                            "dtype": "DT_INT64",
                            "tensorShape": {}
                        }
                    },
                    "dtype": {
                        "type": "DT_INT64"
                    }
                }
            },
            {
                "name": "StatefulPartitionedCall/onnx_tf_prefix_/model.22/dfl/Transpose/perm",
                "op": "Const",
                "attr": {
                    "dtype": {
                        "type": "DT_INT32"
                    },
                    "value": {
                        "tensor": {
                            "dtype": "DT_INT32",
                            "tensorShape": {
                                "dim": [
                                    {
                                        "size": "4"
                                    }
                                ]
                            }
                        }
                    }
                }
            },
            {
                "name": "StatefulPartitionedCall/concat_63",
                "op": "Const",
                "attr": {
                    "value": {
                        "tensor": {
                            "dtype": "DT_INT32",
                            "tensorShape": {
                                "dim": [
                                    {
                                        "size": "4"
                                    }
                                ]
                            }
                        }
                    },
                    "dtype": {
                        "type": "DT_INT32"
                    }
                }
            },
            {
                "name": "StatefulPartitionedCall/concat_64",
                "op": "Const",
                "attr": {
                    "value": {
                        "tensor": {
                            "dtype": "DT_INT32",
                            "tensorShape": {
                                "dim": [
                                    {
                                        "size": "4"
                                    }
                                ]
                            }
                        }
                    },
                    "dtype": {
                        "type": "DT_INT32"
                    }
                }
            },
            {
                "name": "StatefulPartitionedCall/transpose_201/perm",
                "op": "Const",
                "attr": {
                    "value": {
                        "tensor": {
                            "dtype": "DT_INT32",
                            "tensorShape": {
                                "dim": [
                                    {
                                        "size": "4"
                                    }
                                ]
                            }
                        }
                    },
                    "dtype": {
                        "type": "DT_INT32"
                    }
                }
            },
            {
                "name": "StatefulPartitionedCall/split_63",
                "op": "Const",
                "attr": {
                    "dtype": {
                        "type": "DT_FLOAT"
                    },
                    "value": {
                        "tensor": {
                            "dtype": "DT_FLOAT",
                            "tensorShape": {
                                "dim": [
                                    {
                                        "size": "1"
                                    },
                                    {
                                        "size": "1"
                                    },
                                    {
                                        "size": "16"
                                    },
                                    {
                                        "size": "1"
                                    }
                                ]
                            }
                        }
                    }
                }
            },
            {
                "name": "StatefulPartitionedCall/transpose_202/perm",
                "op": "Const",
                "attr": {
                    "dtype": {
                        "type": "DT_INT32"
                    },
                    "value": {
                        "tensor": {
                            "dtype": "DT_INT32",
                            "tensorShape": {
                                "dim": [
                                    {
                                        "size": "4"
                                    }
                                ]
                            }
                        }
                    }
                }
            },
            {
                "name": "StatefulPartitionedCall/onnx_tf_prefix_/model.22/dfl/Constant_1",
                "op": "Const",
                "attr": {
                    "dtype": {
                        "type": "DT_INT64"
                    },
                    "value": {
                        "tensor": {
                            "dtype": "DT_INT64",
                            "tensorShape": {
                                "dim": [
                                    {
                                        "size": "3"
                                    }
                                ]
                            }
                        }
                    }
                }
            },
            {
                "name": "StatefulPartitionedCall/Where_4",
                "op": "Const",
                "attr": {
                    "dtype": {
                        "type": "DT_INT64"
                    },
                    "value": {
                        "tensor": {
                            "dtype": "DT_INT64",
                            "tensorShape": {
                                "dim": [
                                    {},
                                    {
                                        "size": "1"
                                    }
                                ]
                            }
                        }
                    }
                }
            },
            {
                "name": "StatefulPartitionedCall/Cast_8",
                "op": "Const",
                "attr": {
                    "dtype": {
                        "type": "DT_INT64"
                    },
                    "value": {
                        "tensor": {
                            "dtype": "DT_INT64",
                            "tensorShape": {
                                "dim": [
                                    {
                                        "size": "1"
                                    }
                                ]
                            }
                        }
                    }
                }
            },
            {
                "name": "StatefulPartitionedCall/GatherV2_4",
                "op": "Const",
                "attr": {
                    "value": {
                        "tensor": {
                            "dtype": "DT_INT64",
                            "tensorShape": {
                                "dim": [
                                    {}
                                ]
                            }
                        }
                    },
                    "dtype": {
                        "type": "DT_INT64"
                    }
                }
            },
            {
                "name": "StatefulPartitionedCall/zeros_4",
                "op": "Const",
                "attr": {
                    "value": {
                        "tensor": {
                            "dtype": "DT_INT64",
                            "tensorShape": {}
                        }
                    },
                    "dtype": {
                        "type": "DT_INT64"
                    }
                }
            },
            {
                "name": "StatefulPartitionedCall/SelectV2_1",
                "op": "Const",
                "attr": {
                    "dtype": {
                        "type": "DT_INT64"
                    },
                    "value": {
                        "tensor": {
                            "dtype": "DT_INT64",
                            "tensorShape": {
                                "dim": [
                                    {
                                        "size": "1"
                                    }
                                ]
                            }
                        }
                    }
                }
            },
            {
                "name": "StatefulPartitionedCall/zeros_5",
                "op": "Const",
                "attr": {
                    "dtype": {
                        "type": "DT_INT64"
                    },
                    "value": {
                        "tensor": {
                            "dtype": "DT_INT64",
                            "tensorShape": {}
                        }
                    }
                }
            },
            {
                "name": "StatefulPartitionedCall/Const_47",
                "op": "Const",
                "attr": {
                    "value": {
                        "tensor": {
                            "dtype": "DT_INT64",
                            "tensorShape": {}
                        }
                    },
                    "dtype": {
                        "type": "DT_INT64"
                    }
                }
            },
            {
                "name": "StatefulPartitionedCall/Shape_10",
                "op": "Const",
                "attr": {
                    "dtype": {
                        "type": "DT_INT64"
                    },
                    "value": {
                        "tensor": {
                            "dtype": "DT_INT64",
                            "tensorShape": {
                                "dim": [
                                    {
                                        "size": "3"
                                    }
                                ]
                            }
                        }
                    }
                }
            },
            {
                "name": "StatefulPartitionedCall/ExpandDims",
                "op": "Const",
                "attr": {
                    "dtype": {
                        "type": "DT_INT64"
                    },
                    "value": {
                        "tensor": {
                            "dtype": "DT_INT64",
                            "tensorShape": {
                                "dim": [
                                    {
                                        "size": "1"
                                    },
                                    {
                                        "size": "1"
                                    }
                                ]
                            }
                        }
                    }
                }
            },
            {
                "name": "StatefulPartitionedCall/Cast_13",
                "op": "Const",
                "attr": {
                    "value": {
                        "tensor": {
                            "dtype": "DT_INT64",
                            "tensorShape": {
                                "dim": [
                                    {
                                        "size": "1"
                                    }
                                ]
                            }
                        }
                    },
                    "dtype": {
                        "type": "DT_INT64"
                    }
                }
            },
            {
                "name": "Func/StatefulPartitionedCall/assert_equal_1/Assert/AssertGuard/then/_130/output/_144",
                "op": "Const",
                "attr": {
                    "dtype": {
                        "type": "DT_BOOL"
                    },
                    "value": {
                        "tensor": {
                            "dtype": "DT_BOOL",
                            "tensorShape": {}
                        }
                    }
                }
            },
            {
                "name": "StatefulPartitionedCall/Const_46",
                "op": "Const",
                "attr": {
                    "dtype": {
                        "type": "DT_INT64"
                    },
                    "value": {
                        "tensor": {
                            "dtype": "DT_INT64",
                            "tensorShape": {}
                        }
                    }
                }
            },
            {
                "name": "StatefulPartitionedCall/ones",
                "op": "Const",
                "attr": {
                    "value": {
                        "tensor": {
                            "dtype": "DT_INT64",
                            "tensorShape": {
                                "dim": [
                                    {
                                        "size": "3"
                                    }
                                ]
                            }
                        }
                    },
                    "dtype": {
                        "type": "DT_INT64"
                    }
                }
            },
            {
                "name": "StatefulPartitionedCall/onnx_tf_prefix_/model.22/Concat_4/axis",
                "op": "Const",
                "attr": {
                    "value": {
                        "tensor": {
                            "dtype": "DT_INT32",
                            "tensorShape": {}
                        }
                    },
                    "dtype": {
                        "type": "DT_INT32"
                    }
                }
            },
            {
                "name": "StatefulPartitionedCall/onnx_tf_prefix_/model.22/Constant_9",
                "op": "Const",
                "attr": {
                    "dtype": {
                        "type": "DT_FLOAT"
                    },
                    "value": {
                        "tensor": {
                            "dtype": "DT_FLOAT",
                            "tensorShape": {
                                "dim": [
                                    {
                                        "size": "1"
                                    },
                                    {
                                        "size": "33600"
                                    }
                                ]
                            }
                        }
                    }
                }
            },
            {
                "name": "StatefulPartitionedCall/Const_29",
                "op": "Const",
                "attr": {
                    "dtype": {
                        "type": "DT_INT32"
                    },
                    "value": {
                        "tensor": {
                            "dtype": "DT_INT32",
                            "tensorShape": {
                                "dim": [
                                    {
                                        "size": "4"
                                    },
                                    {
                                        "size": "2"
                                    }
                                ]
                            }
                        }
                    }
                }
            },
            {
                "name": "StatefulPartitionedCall/transpose_146/perm",
                "op": "Const",
                "attr": {
                    "value": {
                        "tensor": {
                            "dtype": "DT_INT32",
                            "tensorShape": {
                                "dim": [
                                    {
                                        "size": "4"
                                    }
                                ]
                            }
                        }
                    },
                    "dtype": {
                        "type": "DT_INT32"
                    }
                }
            },
            {
                "name": "StatefulPartitionedCall/split_45",
                "op": "Const",
                "attr": {
                    "value": {
                        "tensor": {
                            "dtype": "DT_FLOAT",
                            "tensorShape": {
                                "dim": [
                                    {
                                        "size": "3"
                                    },
                                    {
                                        "size": "3"
                                    },
                                    {
                                        "size": "64"
                                    },
                                    {
                                        "size": "64"
                                    }
                                ]
                            }
                        }
                    },
                    "dtype": {
                        "type": "DT_FLOAT"
                    }
                }
            },
            {
                "name": "unknown_90",
                "op": "Const",
                "attr": {
                    "value": {
                        "tensor": {
                            "dtype": "DT_FLOAT",
                            "tensorShape": {
                                "dim": [
                                    {
                                        "size": "64"
                                    }
                                ]
                            }
                        }
                    },
                    "dtype": {
                        "type": "DT_FLOAT"
                    }
                }
            },
            {
                "name": "StatefulPartitionedCall/transpose_147/perm",
                "op": "Const",
                "attr": {
                    "dtype": {
                        "type": "DT_INT32"
                    },
                    "value": {
                        "tensor": {
                            "dtype": "DT_INT32",
                            "tensorShape": {
                                "dim": [
                                    {
                                        "size": "4"
                                    }
                                ]
                            }
                        }
                    }
                }
            },
            {
                "name": "StatefulPartitionedCall/Const_30",
                "op": "Const",
                "attr": {
                    "value": {
                        "tensor": {
                            "dtype": "DT_INT32",
                            "tensorShape": {
                                "dim": [
                                    {
                                        "size": "4"
                                    },
                                    {
                                        "size": "2"
                                    }
                                ]
                            }
                        }
                    },
                    "dtype": {
                        "type": "DT_INT32"
                    }
                }
            },
            {
                "name": "StatefulPartitionedCall/transpose_149/perm",
                "op": "Const",
                "attr": {
                    "value": {
                        "tensor": {
                            "dtype": "DT_INT32",
                            "tensorShape": {
                                "dim": [
                                    {
                                        "size": "4"
                                    }
                                ]
                            }
                        }
                    },
                    "dtype": {
                        "type": "DT_INT32"
                    }
                }
            },
            {
                "name": "StatefulPartitionedCall/split_46",
                "op": "Const",
                "attr": {
                    "value": {
                        "tensor": {
                            "dtype": "DT_FLOAT",
                            "tensorShape": {
                                "dim": [
                                    {
                                        "size": "3"
                                    },
                                    {
                                        "size": "3"
                                    },
                                    {
                                        "size": "64"
                                    },
                                    {
                                        "size": "64"
                                    }
                                ]
                            }
                        }
                    },
                    "dtype": {
                        "type": "DT_FLOAT"
                    }
                }
            },
            {
                "name": "unknown_92",
                "op": "Const",
                "attr": {
                    "value": {
                        "tensor": {
                            "dtype": "DT_FLOAT",
                            "tensorShape": {
                                "dim": [
                                    {
                                        "size": "64"
                                    }
                                ]
                            }
                        }
                    },
                    "dtype": {
                        "type": "DT_FLOAT"
                    }
                }
            },
            {
                "name": "StatefulPartitionedCall/transpose_150/perm",
                "op": "Const",
                "attr": {
                    "value": {
                        "tensor": {
                            "dtype": "DT_INT32",
                            "tensorShape": {
                                "dim": [
                                    {
                                        "size": "4"
                                    }
                                ]
                            }
                        }
                    },
                    "dtype": {
                        "type": "DT_INT32"
                    }
                }
            },
            {
                "name": "StatefulPartitionedCall/transpose_152/perm",
                "op": "Const",
                "attr": {
                    "value": {
                        "tensor": {
                            "dtype": "DT_INT32",
                            "tensorShape": {
                                "dim": [
                                    {
                                        "size": "4"
                                    }
                                ]
                            }
                        }
                    },
                    "dtype": {
                        "type": "DT_INT32"
                    }
                }
            },
            {
                "name": "StatefulPartitionedCall/split_47",
                "op": "Const",
                "attr": {
                    "value": {
                        "tensor": {
                            "dtype": "DT_FLOAT",
                            "tensorShape": {
                                "dim": [
                                    {
                                        "size": "1"
                                    },
                                    {
                                        "size": "1"
                                    },
                                    {
                                        "size": "64"
                                    },
                                    {
                                        "size": "64"
                                    }
                                ]
                            }
                        }
                    },
                    "dtype": {
                        "type": "DT_FLOAT"
                    }
                }
            },
            {
                "name": "unknown_94",
                "op": "Const",
                "attr": {
                    "value": {
                        "tensor": {
                            "dtype": "DT_FLOAT",
                            "tensorShape": {
                                "dim": [
                                    {
                                        "size": "64"
                                    }
                                ]
                            }
                        }
                    },
                    "dtype": {
                        "type": "DT_FLOAT"
                    }
                }
            },
            {
                "name": "StatefulPartitionedCall/transpose_153/perm",
                "op": "Const",
                "attr": {
                    "dtype": {
                        "type": "DT_INT32"
                    },
                    "value": {
                        "tensor": {
                            "dtype": "DT_INT32",
                            "tensorShape": {
                                "dim": [
                                    {
                                        "size": "4"
                                    }
                                ]
                            }
                        }
                    }
                }
            },
            {
                "name": "StatefulPartitionedCall/Const_31",
                "op": "Const",
                "attr": {
                    "value": {
                        "tensor": {
                            "dtype": "DT_INT32",
                            "tensorShape": {
                                "dim": [
                                    {
                                        "size": "4"
                                    },
                                    {
                                        "size": "2"
                                    }
                                ]
                            }
                        }
                    },
                    "dtype": {
                        "type": "DT_INT32"
                    }
                }
            },
            {
                "name": "StatefulPartitionedCall/transpose_155/perm",
                "op": "Const",
                "attr": {
                    "dtype": {
                        "type": "DT_INT32"
                    },
                    "value": {
                        "tensor": {
                            "dtype": "DT_INT32",
                            "tensorShape": {
                                "dim": [
                                    {
                                        "size": "4"
                                    }
                                ]
                            }
                        }
                    }
                }
            },
            {
                "name": "StatefulPartitionedCall/split_48",
                "op": "Const",
                "attr": {
                    "dtype": {
                        "type": "DT_FLOAT"
                    },
                    "value": {
                        "tensor": {
                            "dtype": "DT_FLOAT",
                            "tensorShape": {
                                "dim": [
                                    {
                                        "size": "3"
                                    },
                                    {
                                        "size": "3"
                                    },
                                    {
                                        "size": "64"
                                    },
                                    {
                                        "size": "64"
                                    }
                                ]
                            }
                        }
                    }
                }
            },
            {
                "name": "unknown_96",
                "op": "Const",
                "attr": {
                    "value": {
                        "tensor": {
                            "dtype": "DT_FLOAT",
                            "tensorShape": {
                                "dim": [
                                    {
                                        "size": "64"
                                    }
                                ]
                            }
                        }
                    },
                    "dtype": {
                        "type": "DT_FLOAT"
                    }
                }
            },
            {
                "name": "StatefulPartitionedCall/transpose_156/perm",
                "op": "Const",
                "attr": {
                    "value": {
                        "tensor": {
                            "dtype": "DT_INT32",
                            "tensorShape": {
                                "dim": [
                                    {
                                        "size": "4"
                                    }
                                ]
                            }
                        }
                    },
                    "dtype": {
                        "type": "DT_INT32"
                    }
                }
            },
            {
                "name": "StatefulPartitionedCall/Const_32",
                "op": "Const",
                "attr": {
                    "dtype": {
                        "type": "DT_INT32"
                    },
                    "value": {
                        "tensor": {
                            "dtype": "DT_INT32",
                            "tensorShape": {
                                "dim": [
                                    {
                                        "size": "4"
                                    },
                                    {
                                        "size": "2"
                                    }
                                ]
                            }
                        }
                    }
                }
            },
            {
                "name": "StatefulPartitionedCall/transpose_158/perm",
                "op": "Const",
                "attr": {
                    "dtype": {
                        "type": "DT_INT32"
                    },
                    "value": {
                        "tensor": {
                            "dtype": "DT_INT32",
                            "tensorShape": {
                                "dim": [
                                    {
                                        "size": "4"
                                    }
                                ]
                            }
                        }
                    }
                }
            },
            {
                "name": "StatefulPartitionedCall/split_49",
                "op": "Const",
                "attr": {
                    "value": {
                        "tensor": {
                            "dtype": "DT_FLOAT",
                            "tensorShape": {
                                "dim": [
                                    {
                                        "size": "3"
                                    },
                                    {
                                        "size": "3"
                                    },
                                    {
                                        "size": "64"
                                    },
                                    {
                                        "size": "64"
                                    }
                                ]
                            }
                        }
                    },
                    "dtype": {
                        "type": "DT_FLOAT"
                    }
                }
            },
            {
                "name": "unknown_98",
                "op": "Const",
                "attr": {
                    "value": {
                        "tensor": {
                            "dtype": "DT_FLOAT",
                            "tensorShape": {
                                "dim": [
                                    {
                                        "size": "64"
                                    }
                                ]
                            }
                        }
                    },
                    "dtype": {
                        "type": "DT_FLOAT"
                    }
                }
            },
            {
                "name": "StatefulPartitionedCall/transpose_159/perm",
                "op": "Const",
                "attr": {
                    "value": {
                        "tensor": {
                            "dtype": "DT_INT32",
                            "tensorShape": {
                                "dim": [
                                    {
                                        "size": "4"
                                    }
                                ]
                            }
                        }
                    },
                    "dtype": {
                        "type": "DT_INT32"
                    }
                }
            },
            {
                "name": "StatefulPartitionedCall/transpose_161/perm",
                "op": "Const",
                "attr": {
                    "dtype": {
                        "type": "DT_INT32"
                    },
                    "value": {
                        "tensor": {
                            "dtype": "DT_INT32",
                            "tensorShape": {
                                "dim": [
                                    {
                                        "size": "4"
                                    }
                                ]
                            }
                        }
                    }
                }
            },
            {
                "name": "StatefulPartitionedCall/split_50",
                "op": "Const",
                "attr": {
                    "value": {
                        "tensor": {
                            "dtype": "DT_FLOAT",
                            "tensorShape": {
                                "dim": [
                                    {
                                        "size": "1"
                                    },
                                    {
                                        "size": "1"
                                    },
                                    {
                                        "size": "64"
                                    },
                                    {
                                        "size": "8"
                                    }
                                ]
                            }
                        }
                    },
                    "dtype": {
                        "type": "DT_FLOAT"
                    }
                }
            },
            {
                "name": "unknown_100",
                "op": "Const",
                "attr": {
                    "value": {
                        "tensor": {
                            "dtype": "DT_FLOAT",
                            "tensorShape": {
                                "dim": [
                                    {
                                        "size": "8"
                                    }
                                ]
                            }
                        }
                    },
                    "dtype": {
                        "type": "DT_FLOAT"
                    }
                }
            },
            {
                "name": "StatefulPartitionedCall/transpose_162/perm",
                "op": "Const",
                "attr": {
                    "value": {
                        "tensor": {
                            "dtype": "DT_INT32",
                            "tensorShape": {
                                "dim": [
                                    {
                                        "size": "4"
                                    }
                                ]
                            }
                        }
                    },
                    "dtype": {
                        "type": "DT_INT32"
                    }
                }
            },
            {
                "name": "StatefulPartitionedCall/onnx_tf_prefix_/model.22/Concat/axis",
                "op": "Const",
                "attr": {
                    "dtype": {
                        "type": "DT_INT32"
                    },
                    "value": {
                        "tensor": {
                            "dtype": "DT_INT32",
                            "tensorShape": {}
                        }
                    }
                }
            },
            {
                "name": "StatefulPartitionedCall/onnx_tf_prefix_/model.22/Constant",
                "op": "Const",
                "attr": {
                    "value": {
                        "tensor": {
                            "dtype": "DT_INT64",
                            "tensorShape": {
                                "dim": [
                                    {
                                        "size": "3"
                                    }
                                ]
                            }
                        }
                    },
                    "dtype": {
                        "type": "DT_INT64"
                    }
                }
            },
            {
                "name": "StatefulPartitionedCall/Where",
                "op": "Const",
                "attr": {
                    "value": {
                        "tensor": {
                            "dtype": "DT_INT64",
                            "tensorShape": {
                                "dim": [
                                    {},
                                    {
                                        "size": "1"
                                    }
                                ]
                            }
                        }
                    },
                    "dtype": {
                        "type": "DT_INT64"
                    }
                }
            },
            {
                "name": "StatefulPartitionedCall/Cast_4",
                "op": "Const",
                "attr": {
                    "value": {
                        "tensor": {
                            "dtype": "DT_INT64",
                            "tensorShape": {
                                "dim": [
                                    {
                                        "size": "1"
                                    }
                                ]
                            }
                        }
                    },
                    "dtype": {
                        "type": "DT_INT64"
                    }
                }
            },
            {
                "name": "StatefulPartitionedCall/GatherV2",
                "op": "Const",
                "attr": {
                    "value": {
                        "tensor": {
                            "dtype": "DT_INT64",
                            "tensorShape": {
                                "dim": [
                                    {}
                                ]
                            }
                        }
                    },
                    "dtype": {
                        "type": "DT_INT64"
                    }
                }
            },
            {
                "name": "StatefulPartitionedCall/zeros",
                "op": "Const",
                "attr": {
                    "value": {
                        "tensor": {
                            "dtype": "DT_INT64",
                            "tensorShape": {}
                        }
                    },
                    "dtype": {
                        "type": "DT_INT64"
                    }
                }
            },
            {
                "name": "StatefulPartitionedCall/Const_33",
                "op": "Const",
                "attr": {
                    "value": {
                        "tensor": {
                            "dtype": "DT_INT32",
                            "tensorShape": {
                                "dim": [
                                    {
                                        "size": "4"
                                    },
                                    {
                                        "size": "2"
                                    }
                                ]
                            }
                        }
                    },
                    "dtype": {
                        "type": "DT_INT32"
                    }
                }
            },
            {
                "name": "StatefulPartitionedCall/transpose_164/perm",
                "op": "Const",
                "attr": {
                    "value": {
                        "tensor": {
                            "dtype": "DT_INT32",
                            "tensorShape": {
                                "dim": [
                                    {
                                        "size": "4"
                                    }
                                ]
                            }
                        }
                    },
                    "dtype": {
                        "type": "DT_INT32"
                    }
                }
            },
            {
                "name": "StatefulPartitionedCall/split_51",
                "op": "Const",
                "attr": {
                    "dtype": {
                        "type": "DT_FLOAT"
                    },
                    "value": {
                        "tensor": {
                            "dtype": "DT_FLOAT",
                            "tensorShape": {
                                "dim": [
                                    {
                                        "size": "3"
                                    },
                                    {
                                        "size": "3"
                                    },
                                    {
                                        "size": "128"
                                    },
                                    {
                                        "size": "64"
                                    }
                                ]
                            }
                        }
                    }
                }
            },
            {
                "name": "unknown_102",
                "op": "Const",
                "attr": {
                    "value": {
                        "tensor": {
                            "dtype": "DT_FLOAT",
                            "tensorShape": {
                                "dim": [
                                    {
                                        "size": "64"
                                    }
                                ]
                            }
                        }
                    },
                    "dtype": {
                        "type": "DT_FLOAT"
                    }
                }
            },
            {
                "name": "StatefulPartitionedCall/transpose_165/perm",
                "op": "Const",
                "attr": {
                    "dtype": {
                        "type": "DT_INT32"
                    },
                    "value": {
                        "tensor": {
                            "dtype": "DT_INT32",
                            "tensorShape": {
                                "dim": [
                                    {
                                        "size": "4"
                                    }
                                ]
                            }
                        }
                    }
                }
            },
            {
                "name": "StatefulPartitionedCall/Const_34",
                "op": "Const",
                "attr": {
                    "dtype": {
                        "type": "DT_INT32"
                    },
                    "value": {
                        "tensor": {
                            "dtype": "DT_INT32",
                            "tensorShape": {
                                "dim": [
                                    {
                                        "size": "4"
                                    },
                                    {
                                        "size": "2"
                                    }
                                ]
                            }
                        }
                    }
                }
            },
            {
                "name": "StatefulPartitionedCall/transpose_167/perm",
                "op": "Const",
                "attr": {
                    "dtype": {
                        "type": "DT_INT32"
                    },
                    "value": {
                        "tensor": {
                            "dtype": "DT_INT32",
                            "tensorShape": {
                                "dim": [
                                    {
                                        "size": "4"
                                    }
                                ]
                            }
                        }
                    }
                }
            },
            {
                "name": "StatefulPartitionedCall/split_52",
                "op": "Const",
                "attr": {
                    "value": {
                        "tensor": {
                            "dtype": "DT_FLOAT",
                            "tensorShape": {
                                "dim": [
                                    {
                                        "size": "3"
                                    },
                                    {
                                        "size": "3"
                                    },
                                    {
                                        "size": "64"
                                    },
                                    {
                                        "size": "64"
                                    }
                                ]
                            }
                        }
                    },
                    "dtype": {
                        "type": "DT_FLOAT"
                    }
                }
            },
            {
                "name": "unknown_104",
                "op": "Const",
                "attr": {
                    "value": {
                        "tensor": {
                            "dtype": "DT_FLOAT",
                            "tensorShape": {
                                "dim": [
                                    {
                                        "size": "64"
                                    }
                                ]
                            }
                        }
                    },
                    "dtype": {
                        "type": "DT_FLOAT"
                    }
                }
            },
            {
                "name": "StatefulPartitionedCall/transpose_168/perm",
                "op": "Const",
                "attr": {
                    "value": {
                        "tensor": {
                            "dtype": "DT_INT32",
                            "tensorShape": {
                                "dim": [
                                    {
                                        "size": "4"
                                    }
                                ]
                            }
                        }
                    },
                    "dtype": {
                        "type": "DT_INT32"
                    }
                }
            },
            {
                "name": "StatefulPartitionedCall/transpose_170/perm",
                "op": "Const",
                "attr": {
                    "dtype": {
                        "type": "DT_INT32"
                    },
                    "value": {
                        "tensor": {
                            "dtype": "DT_INT32",
                            "tensorShape": {
                                "dim": [
                                    {
                                        "size": "4"
                                    }
                                ]
                            }
                        }
                    }
                }
            },
            {
                "name": "StatefulPartitionedCall/split_53",
                "op": "Const",
                "attr": {
                    "value": {
                        "tensor": {
                            "dtype": "DT_FLOAT",
                            "tensorShape": {
                                "dim": [
                                    {
                                        "size": "1"
                                    },
                                    {
                                        "size": "1"
                                    },
                                    {
                                        "size": "64"
                                    },
                                    {
                                        "size": "64"
                                    }
                                ]
                            }
                        }
                    },
                    "dtype": {
                        "type": "DT_FLOAT"
                    }
                }
            },
            {
                "name": "unknown_106",
                "op": "Const",
                "attr": {
                    "dtype": {
                        "type": "DT_FLOAT"
                    },
                    "value": {
                        "tensor": {
                            "dtype": "DT_FLOAT",
                            "tensorShape": {
                                "dim": [
                                    {
                                        "size": "64"
                                    }
                                ]
                            }
                        }
                    }
                }
            },
            {
                "name": "StatefulPartitionedCall/transpose_171/perm",
                "op": "Const",
                "attr": {
                    "dtype": {
                        "type": "DT_INT32"
                    },
                    "value": {
                        "tensor": {
                            "dtype": "DT_INT32",
                            "tensorShape": {
                                "dim": [
                                    {
                                        "size": "4"
                                    }
                                ]
                            }
                        }
                    }
                }
            },
            {
                "name": "StatefulPartitionedCall/Const_35",
                "op": "Const",
                "attr": {
                    "dtype": {
                        "type": "DT_INT32"
                    },
                    "value": {
                        "tensor": {
                            "dtype": "DT_INT32",
                            "tensorShape": {
                                "dim": [
                                    {
                                        "size": "4"
                                    },
                                    {
                                        "size": "2"
                                    }
                                ]
                            }
                        }
                    }
                }
            },
            {
                "name": "StatefulPartitionedCall/transpose_173/perm",
                "op": "Const",
                "attr": {
                    "dtype": {
                        "type": "DT_INT32"
                    },
                    "value": {
                        "tensor": {
                            "dtype": "DT_INT32",
                            "tensorShape": {
                                "dim": [
                                    {
                                        "size": "4"
                                    }
                                ]
                            }
                        }
                    }
                }
            },
            {
                "name": "StatefulPartitionedCall/split_54",
                "op": "Const",
                "attr": {
                    "dtype": {
                        "type": "DT_FLOAT"
                    },
                    "value": {
                        "tensor": {
                            "dtype": "DT_FLOAT",
                            "tensorShape": {
                                "dim": [
                                    {
                                        "size": "3"
                                    },
                                    {
                                        "size": "3"
                                    },
                                    {
                                        "size": "128"
                                    },
                                    {
                                        "size": "64"
                                    }
                                ]
                            }
                        }
                    }
                }
            },
            {
                "name": "unknown_108",
                "op": "Const",
                "attr": {
                    "dtype": {
                        "type": "DT_FLOAT"
                    },
                    "value": {
                        "tensor": {
                            "dtype": "DT_FLOAT",
                            "tensorShape": {
                                "dim": [
                                    {
                                        "size": "64"
                                    }
                                ]
                            }
                        }
                    }
                }
            },
            {
                "name": "StatefulPartitionedCall/transpose_174/perm",
                "op": "Const",
                "attr": {
                    "value": {
                        "tensor": {
                            "dtype": "DT_INT32",
                            "tensorShape": {
                                "dim": [
                                    {
                                        "size": "4"
                                    }
                                ]
                            }
                        }
                    },
                    "dtype": {
                        "type": "DT_INT32"
                    }
                }
            },
            {
                "name": "StatefulPartitionedCall/Const_36",
                "op": "Const",
                "attr": {
                    "dtype": {
                        "type": "DT_INT32"
                    },
                    "value": {
                        "tensor": {
                            "dtype": "DT_INT32",
                            "tensorShape": {
                                "dim": [
                                    {
                                        "size": "4"
                                    },
                                    {
                                        "size": "2"
                                    }
                                ]
                            }
                        }
                    }
                }
            },
            {
                "name": "StatefulPartitionedCall/transpose_176/perm",
                "op": "Const",
                "attr": {
                    "value": {
                        "tensor": {
                            "dtype": "DT_INT32",
                            "tensorShape": {
                                "dim": [
                                    {
                                        "size": "4"
                                    }
                                ]
                            }
                        }
                    },
                    "dtype": {
                        "type": "DT_INT32"
                    }
                }
            },
            {
                "name": "StatefulPartitionedCall/split_55",
                "op": "Const",
                "attr": {
                    "dtype": {
                        "type": "DT_FLOAT"
                    },
                    "value": {
                        "tensor": {
                            "dtype": "DT_FLOAT",
                            "tensorShape": {
                                "dim": [
                                    {
                                        "size": "3"
                                    },
                                    {
                                        "size": "3"
                                    },
                                    {
                                        "size": "64"
                                    },
                                    {
                                        "size": "64"
                                    }
                                ]
                            }
                        }
                    }
                }
            },
            {
                "name": "unknown_110",
                "op": "Const",
                "attr": {
                    "dtype": {
                        "type": "DT_FLOAT"
                    },
                    "value": {
                        "tensor": {
                            "dtype": "DT_FLOAT",
                            "tensorShape": {
                                "dim": [
                                    {
                                        "size": "64"
                                    }
                                ]
                            }
                        }
                    }
                }
            },
            {
                "name": "StatefulPartitionedCall/transpose_177/perm",
                "op": "Const",
                "attr": {
                    "dtype": {
                        "type": "DT_INT32"
                    },
                    "value": {
                        "tensor": {
                            "dtype": "DT_INT32",
                            "tensorShape": {
                                "dim": [
                                    {
                                        "size": "4"
                                    }
                                ]
                            }
                        }
                    }
                }
            },
            {
                "name": "StatefulPartitionedCall/transpose_179/perm",
                "op": "Const",
                "attr": {
                    "dtype": {
                        "type": "DT_INT32"
                    },
                    "value": {
                        "tensor": {
                            "dtype": "DT_INT32",
                            "tensorShape": {
                                "dim": [
                                    {
                                        "size": "4"
                                    }
                                ]
                            }
                        }
                    }
                }
            },
            {
                "name": "StatefulPartitionedCall/split_56",
                "op": "Const",
                "attr": {
                    "value": {
                        "tensor": {
                            "dtype": "DT_FLOAT",
                            "tensorShape": {
                                "dim": [
                                    {
                                        "size": "1"
                                    },
                                    {
                                        "size": "1"
                                    },
                                    {
                                        "size": "64"
                                    },
                                    {
                                        "size": "8"
                                    }
                                ]
                            }
                        }
                    },
                    "dtype": {
                        "type": "DT_FLOAT"
                    }
                }
            },
            {
                "name": "unknown_112",
                "op": "Const",
                "attr": {
                    "dtype": {
                        "type": "DT_FLOAT"
                    },
                    "value": {
                        "tensor": {
                            "dtype": "DT_FLOAT",
                            "tensorShape": {
                                "dim": [
                                    {
                                        "size": "8"
                                    }
                                ]
                            }
                        }
                    }
                }
            },
            {
                "name": "StatefulPartitionedCall/transpose_180/perm",
                "op": "Const",
                "attr": {
                    "value": {
                        "tensor": {
                            "dtype": "DT_INT32",
                            "tensorShape": {
                                "dim": [
                                    {
                                        "size": "4"
                                    }
                                ]
                            }
                        }
                    },
                    "dtype": {
                        "type": "DT_INT32"
                    }
                }
            },
            {
                "name": "StatefulPartitionedCall/onnx_tf_prefix_/model.22/Concat_1/axis",
                "op": "Const",
                "attr": {
                    "value": {
                        "tensor": {
                            "dtype": "DT_INT32",
                            "tensorShape": {}
                        }
                    },
                    "dtype": {
                        "type": "DT_INT32"
                    }
                }
            },
            {
                "name": "StatefulPartitionedCall/onnx_tf_prefix_/model.22/Constant_1",
                "op": "Const",
                "attr": {
                    "value": {
                        "tensor": {
                            "dtype": "DT_INT64",
                            "tensorShape": {
                                "dim": [
                                    {
                                        "size": "3"
                                    }
                                ]
                            }
                        }
                    },
                    "dtype": {
                        "type": "DT_INT64"
                    }
                }
            },
            {
                "name": "StatefulPartitionedCall/Where_1",
                "op": "Const",
                "attr": {
                    "value": {
                        "tensor": {
                            "dtype": "DT_INT64",
                            "tensorShape": {
                                "dim": [
                                    {},
                                    {
                                        "size": "1"
                                    }
                                ]
                            }
                        }
                    },
                    "dtype": {
                        "type": "DT_INT64"
                    }
                }
            },
            {
                "name": "StatefulPartitionedCall/Cast_5",
                "op": "Const",
                "attr": {
                    "dtype": {
                        "type": "DT_INT64"
                    },
                    "value": {
                        "tensor": {
                            "dtype": "DT_INT64",
                            "tensorShape": {
                                "dim": [
                                    {
                                        "size": "1"
                                    }
                                ]
                            }
                        }
                    }
                }
            },
            {
                "name": "StatefulPartitionedCall/GatherV2_1",
                "op": "Const",
                "attr": {
                    "dtype": {
                        "type": "DT_INT64"
                    },
                    "value": {
                        "tensor": {
                            "dtype": "DT_INT64",
                            "tensorShape": {
                                "dim": [
                                    {}
                                ]
                            }
                        }
                    }
                }
            },
            {
                "name": "StatefulPartitionedCall/zeros_1",
                "op": "Const",
                "attr": {
                    "value": {
                        "tensor": {
                            "dtype": "DT_INT64",
                            "tensorShape": {}
                        }
                    },
                    "dtype": {
                        "type": "DT_INT64"
                    }
                }
            },
            {
                "name": "StatefulPartitionedCall/Const_37",
                "op": "Const",
                "attr": {
                    "value": {
                        "tensor": {
                            "dtype": "DT_INT32",
                            "tensorShape": {
                                "dim": [
                                    {
                                        "size": "4"
                                    },
                                    {
                                        "size": "2"
                                    }
                                ]
                            }
                        }
                    },
                    "dtype": {
                        "type": "DT_INT32"
                    }
                }
            },
            {
                "name": "StatefulPartitionedCall/transpose_182/perm",
                "op": "Const",
                "attr": {
                    "dtype": {
                        "type": "DT_INT32"
                    },
                    "value": {
                        "tensor": {
                            "dtype": "DT_INT32",
                            "tensorShape": {
                                "dim": [
                                    {
                                        "size": "4"
                                    }
                                ]
                            }
                        }
                    }
                }
            },
            {
                "name": "StatefulPartitionedCall/split_57",
                "op": "Const",
                "attr": {
                    "dtype": {
                        "type": "DT_FLOAT"
                    },
                    "value": {
                        "tensor": {
                            "dtype": "DT_FLOAT",
                            "tensorShape": {
                                "dim": [
                                    {
                                        "size": "3"
                                    },
                                    {
                                        "size": "3"
                                    },
                                    {
                                        "size": "256"
                                    },
                                    {
                                        "size": "64"
                                    }
                                ]
                            }
                        }
                    }
                }
            },
            {
                "name": "unknown_114",
                "op": "Const",
                "attr": {
                    "value": {
                        "tensor": {
                            "dtype": "DT_FLOAT",
                            "tensorShape": {
                                "dim": [
                                    {
                                        "size": "64"
                                    }
                                ]
                            }
                        }
                    },
                    "dtype": {
                        "type": "DT_FLOAT"
                    }
                }
            },
            {
                "name": "StatefulPartitionedCall/transpose_183/perm",
                "op": "Const",
                "attr": {
                    "dtype": {
                        "type": "DT_INT32"
                    },
                    "value": {
                        "tensor": {
                            "dtype": "DT_INT32",
                            "tensorShape": {
                                "dim": [
                                    {
                                        "size": "4"
                                    }
                                ]
                            }
                        }
                    }
                }
            },
            {
                "name": "StatefulPartitionedCall/Const_38",
                "op": "Const",
                "attr": {
                    "value": {
                        "tensor": {
                            "dtype": "DT_INT32",
                            "tensorShape": {
                                "dim": [
                                    {
                                        "size": "4"
                                    },
                                    {
                                        "size": "2"
                                    }
                                ]
                            }
                        }
                    },
                    "dtype": {
                        "type": "DT_INT32"
                    }
                }
            },
            {
                "name": "StatefulPartitionedCall/transpose_185/perm",
                "op": "Const",
                "attr": {
                    "value": {
                        "tensor": {
                            "dtype": "DT_INT32",
                            "tensorShape": {
                                "dim": [
                                    {
                                        "size": "4"
                                    }
                                ]
                            }
                        }
                    },
                    "dtype": {
                        "type": "DT_INT32"
                    }
                }
            },
            {
                "name": "StatefulPartitionedCall/split_58",
                "op": "Const",
                "attr": {
                    "value": {
                        "tensor": {
                            "dtype": "DT_FLOAT",
                            "tensorShape": {
                                "dim": [
                                    {
                                        "size": "3"
                                    },
                                    {
                                        "size": "3"
                                    },
                                    {
                                        "size": "64"
                                    },
                                    {
                                        "size": "64"
                                    }
                                ]
                            }
                        }
                    },
                    "dtype": {
                        "type": "DT_FLOAT"
                    }
                }
            },
            {
                "name": "unknown_116",
                "op": "Const",
                "attr": {
                    "value": {
                        "tensor": {
                            "dtype": "DT_FLOAT",
                            "tensorShape": {
                                "dim": [
                                    {
                                        "size": "64"
                                    }
                                ]
                            }
                        }
                    },
                    "dtype": {
                        "type": "DT_FLOAT"
                    }
                }
            },
            {
                "name": "StatefulPartitionedCall/transpose_186/perm",
                "op": "Const",
                "attr": {
                    "dtype": {
                        "type": "DT_INT32"
                    },
                    "value": {
                        "tensor": {
                            "dtype": "DT_INT32",
                            "tensorShape": {
                                "dim": [
                                    {
                                        "size": "4"
                                    }
                                ]
                            }
                        }
                    }
                }
            },
            {
                "name": "StatefulPartitionedCall/transpose_188/perm",
                "op": "Const",
                "attr": {
                    "dtype": {
                        "type": "DT_INT32"
                    },
                    "value": {
                        "tensor": {
                            "dtype": "DT_INT32",
                            "tensorShape": {
                                "dim": [
                                    {
                                        "size": "4"
                                    }
                                ]
                            }
                        }
                    }
                }
            },
            {
                "name": "StatefulPartitionedCall/split_59",
                "op": "Const",
                "attr": {
                    "value": {
                        "tensor": {
                            "dtype": "DT_FLOAT",
                            "tensorShape": {
                                "dim": [
                                    {
                                        "size": "1"
                                    },
                                    {
                                        "size": "1"
                                    },
                                    {
                                        "size": "64"
                                    },
                                    {
                                        "size": "64"
                                    }
                                ]
                            }
                        }
                    },
                    "dtype": {
                        "type": "DT_FLOAT"
                    }
                }
            },
            {
                "name": "unknown_118",
                "op": "Const",
                "attr": {
                    "value": {
                        "tensor": {
                            "dtype": "DT_FLOAT",
                            "tensorShape": {
                                "dim": [
                                    {
                                        "size": "64"
                                    }
                                ]
                            }
                        }
                    },
                    "dtype": {
                        "type": "DT_FLOAT"
                    }
                }
            },
            {
                "name": "StatefulPartitionedCall/transpose_189/perm",
                "op": "Const",
                "attr": {
                    "dtype": {
                        "type": "DT_INT32"
                    },
                    "value": {
                        "tensor": {
                            "dtype": "DT_INT32",
                            "tensorShape": {
                                "dim": [
                                    {
                                        "size": "4"
                                    }
                                ]
                            }
                        }
                    }
                }
            },
            {
                "name": "StatefulPartitionedCall/transpose_101/perm",
                "op": "Const",
                "attr": {
                    "value": {
                        "tensor": {
                            "dtype": "DT_INT32",
                            "tensorShape": {
                                "dim": [
                                    {
                                        "size": "4"
                                    }
                                ]
                            }
                        }
                    },
                    "dtype": {
                        "type": "DT_INT32"
                    }
                }
            },
            {
                "name": "StatefulPartitionedCall/Cast_3",
                "op": "Const",
                "attr": {
                    "dtype": {
                        "type": "DT_INT32"
                    },
                    "value": {
                        "tensor": {
                            "dtype": "DT_INT32",
                            "tensorShape": {
                                "dim": [
                                    {
                                        "size": "2"
                                    }
                                ]
                            }
                        }
                    }
                }
            },
            {
                "name": "StatefulPartitionedCall/transpose_102/perm",
                "op": "Const",
                "attr": {
                    "value": {
                        "tensor": {
                            "dtype": "DT_INT32",
                            "tensorShape": {
                                "dim": [
                                    {
                                        "size": "4"
                                    }
                                ]
                            }
                        }
                    },
                    "dtype": {
                        "type": "DT_INT32"
                    }
                }
            },
            {
                "name": "StatefulPartitionedCall/onnx_tf_prefix_/model.14/Concat/axis",
                "op": "Const",
                "attr": {
                    "dtype": {
                        "type": "DT_INT32"
                    },
                    "value": {
                        "tensor": {
                            "dtype": "DT_INT32",
                            "tensorShape": {}
                        }
                    }
                }
            },
            {
                "name": "StatefulPartitionedCall/transpose_104/perm",
                "op": "Const",
                "attr": {
                    "value": {
                        "tensor": {
                            "dtype": "DT_INT32",
                            "tensorShape": {
                                "dim": [
                                    {
                                        "size": "4"
                                    }
                                ]
                            }
                        }
                    },
                    "dtype": {
                        "type": "DT_INT32"
                    }
                }
            },
            {
                "name": "StatefulPartitionedCall/split_31",
                "op": "Const",
                "attr": {
                    "value": {
                        "tensor": {
                            "dtype": "DT_FLOAT",
                            "tensorShape": {
                                "dim": [
                                    {
                                        "size": "1"
                                    },
                                    {
                                        "size": "1"
                                    },
                                    {
                                        "size": "192"
                                    },
                                    {
                                        "size": "64"
                                    }
                                ]
                            }
                        }
                    },
                    "dtype": {
                        "type": "DT_FLOAT"
                    }
                }
            },
            {
                "name": "unknown_62",
                "op": "Const",
                "attr": {
                    "value": {
                        "tensor": {
                            "dtype": "DT_FLOAT",
                            "tensorShape": {
                                "dim": [
                                    {
                                        "size": "64"
                                    }
                                ]
                            }
                        }
                    },
                    "dtype": {
                        "type": "DT_FLOAT"
                    }
                }
            },
            {
                "name": "StatefulPartitionedCall/transpose_105/perm",
                "op": "Const",
                "attr": {
                    "dtype": {
                        "type": "DT_INT32"
                    },
                    "value": {
                        "tensor": {
                            "dtype": "DT_INT32",
                            "tensorShape": {
                                "dim": [
                                    {
                                        "size": "4"
                                    }
                                ]
                            }
                        }
                    }
                }
            },
            {
                "name": "StatefulPartitionedCall/onnx_tf_prefix_/model.15/Split/split_dim",
                "op": "Const",
                "attr": {
                    "value": {
                        "tensor": {
                            "dtype": "DT_INT32",
                            "tensorShape": {}
                        }
                    },
                    "dtype": {
                        "type": "DT_INT32"
                    }
                }
            },
            {
                "name": "StatefulPartitionedCall/Const_21",
                "op": "Const",
                "attr": {
                    "value": {
                        "tensor": {
                            "dtype": "DT_INT32",
                            "tensorShape": {
                                "dim": [
                                    {
                                        "size": "4"
                                    },
                                    {
                                        "size": "2"
                                    }
                                ]
                            }
                        }
                    },
                    "dtype": {
                        "type": "DT_INT32"
                    }
                }
            },
            {
                "name": "StatefulPartitionedCall/transpose_107/perm",
                "op": "Const",
                "attr": {
                    "value": {
                        "tensor": {
                            "dtype": "DT_INT32",
                            "tensorShape": {
                                "dim": [
                                    {
                                        "size": "4"
                                    }
                                ]
                            }
                        }
                    },
                    "dtype": {
                        "type": "DT_INT32"
                    }
                }
            },
            {
                "name": "StatefulPartitionedCall/split_32",
                "op": "Const",
                "attr": {
                    "dtype": {
                        "type": "DT_FLOAT"
                    },
                    "value": {
                        "tensor": {
                            "dtype": "DT_FLOAT",
                            "tensorShape": {
                                "dim": [
                                    {
                                        "size": "3"
                                    },
                                    {
                                        "size": "3"
                                    },
                                    {
                                        "size": "32"
                                    },
                                    {
                                        "size": "32"
                                    }
                                ]
                            }
                        }
                    }
                }
            },
            {
                "name": "unknown_64",
                "op": "Const",
                "attr": {
                    "dtype": {
                        "type": "DT_FLOAT"
                    },
                    "value": {
                        "tensor": {
                            "dtype": "DT_FLOAT",
                            "tensorShape": {
                                "dim": [
                                    {
                                        "size": "32"
                                    }
                                ]
                            }
                        }
                    }
                }
            },
            {
                "name": "StatefulPartitionedCall/transpose_108/perm",
                "op": "Const",
                "attr": {
                    "value": {
                        "tensor": {
                            "dtype": "DT_INT32",
                            "tensorShape": {
                                "dim": [
                                    {
                                        "size": "4"
                                    }
                                ]
                            }
                        }
                    },
                    "dtype": {
                        "type": "DT_INT32"
                    }
                }
            },
            {
                "name": "StatefulPartitionedCall/Const_22",
                "op": "Const",
                "attr": {
                    "value": {
                        "tensor": {
                            "dtype": "DT_INT32",
                            "tensorShape": {
                                "dim": [
                                    {
                                        "size": "4"
                                    },
                                    {
                                        "size": "2"
                                    }
                                ]
                            }
                        }
                    },
                    "dtype": {
                        "type": "DT_INT32"
                    }
                }
            },
            {
                "name": "StatefulPartitionedCall/transpose_110/perm",
                "op": "Const",
                "attr": {
                    "dtype": {
                        "type": "DT_INT32"
                    },
                    "value": {
                        "tensor": {
                            "dtype": "DT_INT32",
                            "tensorShape": {
                                "dim": [
                                    {
                                        "size": "4"
                                    }
                                ]
                            }
                        }
                    }
                }
            },
            {
                "name": "StatefulPartitionedCall/split_33",
                "op": "Const",
                "attr": {
                    "value": {
                        "tensor": {
                            "dtype": "DT_FLOAT",
                            "tensorShape": {
                                "dim": [
                                    {
                                        "size": "3"
                                    },
                                    {
                                        "size": "3"
                                    },
                                    {
                                        "size": "32"
                                    },
                                    {
                                        "size": "32"
                                    }
                                ]
                            }
                        }
                    },
                    "dtype": {
                        "type": "DT_FLOAT"
                    }
                }
            },
            {
                "name": "unknown_66",
                "op": "Const",
                "attr": {
                    "value": {
                        "tensor": {
                            "dtype": "DT_FLOAT",
                            "tensorShape": {
                                "dim": [
                                    {
                                        "size": "32"
                                    }
                                ]
                            }
                        }
                    },
                    "dtype": {
                        "type": "DT_FLOAT"
                    }
                }
            },
            {
                "name": "StatefulPartitionedCall/transpose_111/perm",
                "op": "Const",
                "attr": {
                    "dtype": {
                        "type": "DT_INT32"
                    },
                    "value": {
                        "tensor": {
                            "dtype": "DT_INT32",
                            "tensorShape": {
                                "dim": [
                                    {
                                        "size": "4"
                                    }
                                ]
                            }
                        }
                    }
                }
            },
            {
                "name": "StatefulPartitionedCall/onnx_tf_prefix_/model.15/Concat/axis",
                "op": "Const",
                "attr": {
                    "value": {
                        "tensor": {
                            "dtype": "DT_INT32",
                            "tensorShape": {}
                        }
                    },
                    "dtype": {
                        "type": "DT_INT32"
                    }
                }
            },
            {
                "name": "StatefulPartitionedCall/transpose_113/perm",
                "op": "Const",
                "attr": {
                    "dtype": {
                        "type": "DT_INT32"
                    },
                    "value": {
                        "tensor": {
                            "dtype": "DT_INT32",
                            "tensorShape": {
                                "dim": [
                                    {
                                        "size": "4"
                                    }
                                ]
                            }
                        }
                    }
                }
            },
            {
                "name": "StatefulPartitionedCall/split_34",
                "op": "Const",
                "attr": {
                    "value": {
                        "tensor": {
                            "dtype": "DT_FLOAT",
                            "tensorShape": {
                                "dim": [
                                    {
                                        "size": "1"
                                    },
                                    {
                                        "size": "1"
                                    },
                                    {
                                        "size": "96"
                                    },
                                    {
                                        "size": "64"
                                    }
                                ]
                            }
                        }
                    },
                    "dtype": {
                        "type": "DT_FLOAT"
                    }
                }
            },
            {
                "name": "unknown_68",
                "op": "Const",
                "attr": {
                    "dtype": {
                        "type": "DT_FLOAT"
                    },
                    "value": {
                        "tensor": {
                            "dtype": "DT_FLOAT",
                            "tensorShape": {
                                "dim": [
                                    {
                                        "size": "64"
                                    }
                                ]
                            }
                        }
                    }
                }
            },
            {
                "name": "StatefulPartitionedCall/transpose_114/perm",
                "op": "Const",
                "attr": {
                    "dtype": {
                        "type": "DT_INT32"
                    },
                    "value": {
                        "tensor": {
                            "dtype": "DT_INT32",
                            "tensorShape": {
                                "dim": [
                                    {
                                        "size": "4"
                                    }
                                ]
                            }
                        }
                    }
                }
            },
            {
                "name": "StatefulPartitionedCall/Const_23",
                "op": "Const",
                "attr": {
                    "dtype": {
                        "type": "DT_INT32"
                    },
                    "value": {
                        "tensor": {
                            "dtype": "DT_INT32",
                            "tensorShape": {
                                "dim": [
                                    {
                                        "size": "4"
                                    },
                                    {
                                        "size": "2"
                                    }
                                ]
                            }
                        }
                    }
                }
            },
            {
                "name": "StatefulPartitionedCall/transpose_116/perm",
                "op": "Const",
                "attr": {
                    "dtype": {
                        "type": "DT_INT32"
                    },
                    "value": {
                        "tensor": {
                            "dtype": "DT_INT32",
                            "tensorShape": {
                                "dim": [
                                    {
                                        "size": "4"
                                    }
                                ]
                            }
                        }
                    }
                }
            },
            {
                "name": "StatefulPartitionedCall/split_35",
                "op": "Const",
                "attr": {
                    "value": {
                        "tensor": {
                            "dtype": "DT_FLOAT",
                            "tensorShape": {
                                "dim": [
                                    {
                                        "size": "3"
                                    },
                                    {
                                        "size": "3"
                                    },
                                    {
                                        "size": "64"
                                    },
                                    {
                                        "size": "64"
                                    }
                                ]
                            }
                        }
                    },
                    "dtype": {
                        "type": "DT_FLOAT"
                    }
                }
            },
            {
                "name": "unknown_70",
                "op": "Const",
                "attr": {
                    "dtype": {
                        "type": "DT_FLOAT"
                    },
                    "value": {
                        "tensor": {
                            "dtype": "DT_FLOAT",
                            "tensorShape": {
                                "dim": [
                                    {
                                        "size": "64"
                                    }
                                ]
                            }
                        }
                    }
                }
            },
            {
                "name": "StatefulPartitionedCall/transpose_117/perm",
                "op": "Const",
                "attr": {
                    "value": {
                        "tensor": {
                            "dtype": "DT_INT32",
                            "tensorShape": {
                                "dim": [
                                    {
                                        "size": "4"
                                    }
                                ]
                            }
                        }
                    },
                    "dtype": {
                        "type": "DT_INT32"
                    }
                }
            },
            {
                "name": "StatefulPartitionedCall/transpose_87/perm",
                "op": "Const",
                "attr": {
                    "value": {
                        "tensor": {
                            "dtype": "DT_INT32",
                            "tensorShape": {
                                "dim": [
                                    {
                                        "size": "4"
                                    }
                                ]
                            }
                        }
                    },
                    "dtype": {
                        "type": "DT_INT32"
                    }
                }
            },
            {
                "name": "StatefulPartitionedCall/Cast_1",
                "op": "Const",
                "attr": {
                    "dtype": {
                        "type": "DT_INT32"
                    },
                    "value": {
                        "tensor": {
                            "dtype": "DT_INT32",
                            "tensorShape": {
                                "dim": [
                                    {
                                        "size": "2"
                                    }
                                ]
                            }
                        }
                    }
                }
            },
            {
                "name": "StatefulPartitionedCall/transpose_88/perm",
                "op": "Const",
                "attr": {
                    "dtype": {
                        "type": "DT_INT32"
                    },
                    "value": {
                        "tensor": {
                            "dtype": "DT_INT32",
                            "tensorShape": {
                                "dim": [
                                    {
                                        "size": "4"
                                    }
                                ]
                            }
                        }
                    }
                }
            },
            {
                "name": "StatefulPartitionedCall/onnx_tf_prefix_/model.11/Concat/axis",
                "op": "Const",
                "attr": {
                    "value": {
                        "tensor": {
                            "dtype": "DT_INT32",
                            "tensorShape": {}
                        }
                    },
                    "dtype": {
                        "type": "DT_INT32"
                    }
                }
            },
            {
                "name": "StatefulPartitionedCall/transpose_90/perm",
                "op": "Const",
                "attr": {
                    "value": {
                        "tensor": {
                            "dtype": "DT_INT32",
                            "tensorShape": {
                                "dim": [
                                    {
                                        "size": "4"
                                    }
                                ]
                            }
                        }
                    },
                    "dtype": {
                        "type": "DT_INT32"
                    }
                }
            },
            {
                "name": "StatefulPartitionedCall/split_27",
                "op": "Const",
                "attr": {
                    "dtype": {
                        "type": "DT_FLOAT"
                    },
                    "value": {
                        "tensor": {
                            "dtype": "DT_FLOAT",
                            "tensorShape": {
                                "dim": [
                                    {
                                        "size": "1"
                                    },
                                    {
                                        "size": "1"
                                    },
                                    {
                                        "size": "384"
                                    },
                                    {
                                        "size": "128"
                                    }
                                ]
                            }
                        }
                    }
                }
            },
            {
                "name": "unknown_54",
                "op": "Const",
                "attr": {
                    "dtype": {
                        "type": "DT_FLOAT"
                    },
                    "value": {
                        "tensor": {
                            "dtype": "DT_FLOAT",
                            "tensorShape": {
                                "dim": [
                                    {
                                        "size": "128"
                                    }
                                ]
                            }
                        }
                    }
                }
            },
            {
                "name": "StatefulPartitionedCall/transpose_91/perm",
                "op": "Const",
                "attr": {
                    "dtype": {
                        "type": "DT_INT32"
                    },
                    "value": {
                        "tensor": {
                            "dtype": "DT_INT32",
                            "tensorShape": {
                                "dim": [
                                    {
                                        "size": "4"
                                    }
                                ]
                            }
                        }
                    }
                }
            },
            {
                "name": "StatefulPartitionedCall/onnx_tf_prefix_/model.12/Split/split_dim",
                "op": "Const",
                "attr": {
                    "value": {
                        "tensor": {
                            "dtype": "DT_INT32",
                            "tensorShape": {}
                        }
                    },
                    "dtype": {
                        "type": "DT_INT32"
                    }
                }
            },
            {
                "name": "StatefulPartitionedCall/Const_18",
                "op": "Const",
                "attr": {
                    "dtype": {
                        "type": "DT_INT32"
                    },
                    "value": {
                        "tensor": {
                            "dtype": "DT_INT32",
                            "tensorShape": {
                                "dim": [
                                    {
                                        "size": "4"
                                    },
                                    {
                                        "size": "2"
                                    }
                                ]
                            }
                        }
                    }
                }
            },
            {
                "name": "StatefulPartitionedCall/transpose_93/perm",
                "op": "Const",
                "attr": {
                    "value": {
                        "tensor": {
                            "dtype": "DT_INT32",
                            "tensorShape": {
                                "dim": [
                                    {
                                        "size": "4"
                                    }
                                ]
                            }
                        }
                    },
                    "dtype": {
                        "type": "DT_INT32"
                    }
                }
            },
            {
                "name": "StatefulPartitionedCall/split_28",
                "op": "Const",
                "attr": {
                    "value": {
                        "tensor": {
                            "dtype": "DT_FLOAT",
                            "tensorShape": {
                                "dim": [
                                    {
                                        "size": "3"
                                    },
                                    {
                                        "size": "3"
                                    },
                                    {
                                        "size": "64"
                                    },
                                    {
                                        "size": "64"
                                    }
                                ]
                            }
                        }
                    },
                    "dtype": {
                        "type": "DT_FLOAT"
                    }
                }
            },
            {
                "name": "unknown_56",
                "op": "Const",
                "attr": {
                    "dtype": {
                        "type": "DT_FLOAT"
                    },
                    "value": {
                        "tensor": {
                            "dtype": "DT_FLOAT",
                            "tensorShape": {
                                "dim": [
                                    {
                                        "size": "64"
                                    }
                                ]
                            }
                        }
                    }
                }
            },
            {
                "name": "StatefulPartitionedCall/transpose_94/perm",
                "op": "Const",
                "attr": {
                    "dtype": {
                        "type": "DT_INT32"
                    },
                    "value": {
                        "tensor": {
                            "dtype": "DT_INT32",
                            "tensorShape": {
                                "dim": [
                                    {
                                        "size": "4"
                                    }
                                ]
                            }
                        }
                    }
                }
            },
            {
                "name": "StatefulPartitionedCall/Const_19",
                "op": "Const",
                "attr": {
                    "value": {
                        "tensor": {
                            "dtype": "DT_INT32",
                            "tensorShape": {
                                "dim": [
                                    {
                                        "size": "4"
                                    },
                                    {
                                        "size": "2"
                                    }
                                ]
                            }
                        }
                    },
                    "dtype": {
                        "type": "DT_INT32"
                    }
                }
            },
            {
                "name": "StatefulPartitionedCall/transpose_96/perm",
                "op": "Const",
                "attr": {
                    "dtype": {
                        "type": "DT_INT32"
                    },
                    "value": {
                        "tensor": {
                            "dtype": "DT_INT32",
                            "tensorShape": {
                                "dim": [
                                    {
                                        "size": "4"
                                    }
                                ]
                            }
                        }
                    }
                }
            },
            {
                "name": "StatefulPartitionedCall/split_29",
                "op": "Const",
                "attr": {
                    "dtype": {
                        "type": "DT_FLOAT"
                    },
                    "value": {
                        "tensor": {
                            "dtype": "DT_FLOAT",
                            "tensorShape": {
                                "dim": [
                                    {
                                        "size": "3"
                                    },
                                    {
                                        "size": "3"
                                    },
                                    {
                                        "size": "64"
                                    },
                                    {
                                        "size": "64"
                                    }
                                ]
                            }
                        }
                    }
                }
            },
            {
                "name": "unknown_58",
                "op": "Const",
                "attr": {
                    "dtype": {
                        "type": "DT_FLOAT"
                    },
                    "value": {
                        "tensor": {
                            "dtype": "DT_FLOAT",
                            "tensorShape": {
                                "dim": [
                                    {
                                        "size": "64"
                                    }
                                ]
                            }
                        }
                    }
                }
            },
            {
                "name": "StatefulPartitionedCall/transpose_97/perm",
                "op": "Const",
                "attr": {
                    "dtype": {
                        "type": "DT_INT32"
                    },
                    "value": {
                        "tensor": {
                            "dtype": "DT_INT32",
                            "tensorShape": {
                                "dim": [
                                    {
                                        "size": "4"
                                    }
                                ]
                            }
                        }
                    }
                }
            },
            {
                "name": "StatefulPartitionedCall/onnx_tf_prefix_/model.12/Concat/axis",
                "op": "Const",
                "attr": {
                    "value": {
                        "tensor": {
                            "dtype": "DT_INT32",
                            "tensorShape": {}
                        }
                    },
                    "dtype": {
                        "type": "DT_INT32"
                    }
                }
            },
            {
                "name": "StatefulPartitionedCall/transpose_99/perm",
                "op": "Const",
                "attr": {
                    "value": {
                        "tensor": {
                            "dtype": "DT_INT32",
                            "tensorShape": {
                                "dim": [
                                    {
                                        "size": "4"
                                    }
                                ]
                            }
                        }
                    },
                    "dtype": {
                        "type": "DT_INT32"
                    }
                }
            },
            {
                "name": "StatefulPartitionedCall/split_30",
                "op": "Const",
                "attr": {
                    "value": {
                        "tensor": {
                            "dtype": "DT_FLOAT",
                            "tensorShape": {
                                "dim": [
                                    {
                                        "size": "1"
                                    },
                                    {
                                        "size": "1"
                                    },
                                    {
                                        "size": "192"
                                    },
                                    {
                                        "size": "128"
                                    }
                                ]
                            }
                        }
                    },
                    "dtype": {
                        "type": "DT_FLOAT"
                    }
                }
            },
            {
                "name": "unknown_60",
                "op": "Const",
                "attr": {
                    "value": {
                        "tensor": {
                            "dtype": "DT_FLOAT",
                            "tensorShape": {
                                "dim": [
                                    {
                                        "size": "128"
                                    }
                                ]
                            }
                        }
                    },
                    "dtype": {
                        "type": "DT_FLOAT"
                    }
                }
            },
            {
                "name": "StatefulPartitionedCall/transpose_100/perm",
                "op": "Const",
                "attr": {
                    "value": {
                        "tensor": {
                            "dtype": "DT_INT32",
                            "tensorShape": {
                                "dim": [
                                    {
                                        "size": "4"
                                    }
                                ]
                            }
                        }
                    },
                    "dtype": {
                        "type": "DT_INT32"
                    }
                }
            },
            {
                "name": "StatefulPartitionedCall/onnx_tf_prefix_/model.17/Concat/axis",
                "op": "Const",
                "attr": {
                    "dtype": {
                        "type": "DT_INT32"
                    },
                    "value": {
                        "tensor": {
                            "dtype": "DT_INT32",
                            "tensorShape": {}
                        }
                    }
                }
            },
            {
                "name": "StatefulPartitionedCall/transpose_119/perm",
                "op": "Const",
                "attr": {
                    "value": {
                        "tensor": {
                            "dtype": "DT_INT32",
                            "tensorShape": {
                                "dim": [
                                    {
                                        "size": "4"
                                    }
                                ]
                            }
                        }
                    },
                    "dtype": {
                        "type": "DT_INT32"
                    }
                }
            },
            {
                "name": "StatefulPartitionedCall/split_36",
                "op": "Const",
                "attr": {
                    "value": {
                        "tensor": {
                            "dtype": "DT_FLOAT",
                            "tensorShape": {
                                "dim": [
                                    {
                                        "size": "1"
                                    },
                                    {
                                        "size": "1"
                                    },
                                    {
                                        "size": "192"
                                    },
                                    {
                                        "size": "128"
                                    }
                                ]
                            }
                        }
                    },
                    "dtype": {
                        "type": "DT_FLOAT"
                    }
                }
            },
            {
                "name": "unknown_72",
                "op": "Const",
                "attr": {
                    "value": {
                        "tensor": {
                            "dtype": "DT_FLOAT",
                            "tensorShape": {
                                "dim": [
                                    {
                                        "size": "128"
                                    }
                                ]
                            }
                        }
                    },
                    "dtype": {
                        "type": "DT_FLOAT"
                    }
                }
            },
            {
                "name": "StatefulPartitionedCall/transpose_120/perm",
                "op": "Const",
                "attr": {
                    "value": {
                        "tensor": {
                            "dtype": "DT_INT32",
                            "tensorShape": {
                                "dim": [
                                    {
                                        "size": "4"
                                    }
                                ]
                            }
                        }
                    },
                    "dtype": {
                        "type": "DT_INT32"
                    }
                }
            },
            {
                "name": "StatefulPartitionedCall/onnx_tf_prefix_/model.18/Split/split_dim",
                "op": "Const",
                "attr": {
                    "value": {
                        "tensor": {
                            "dtype": "DT_INT32",
                            "tensorShape": {}
                        }
                    },
                    "dtype": {
                        "type": "DT_INT32"
                    }
                }
            },
            {
                "name": "StatefulPartitionedCall/Const_24",
                "op": "Const",
                "attr": {
                    "value": {
                        "tensor": {
                            "dtype": "DT_INT32",
                            "tensorShape": {
                                "dim": [
                                    {
                                        "size": "4"
                                    },
                                    {
                                        "size": "2"
                                    }
                                ]
                            }
                        }
                    },
                    "dtype": {
                        "type": "DT_INT32"
                    }
                }
            },
            {
                "name": "StatefulPartitionedCall/transpose_122/perm",
                "op": "Const",
                "attr": {
                    "value": {
                        "tensor": {
                            "dtype": "DT_INT32",
                            "tensorShape": {
                                "dim": [
                                    {
                                        "size": "4"
                                    }
                                ]
                            }
                        }
                    },
                    "dtype": {
                        "type": "DT_INT32"
                    }
                }
            },
            {
                "name": "StatefulPartitionedCall/split_37",
                "op": "Const",
                "attr": {
                    "value": {
                        "tensor": {
                            "dtype": "DT_FLOAT",
                            "tensorShape": {
                                "dim": [
                                    {
                                        "size": "3"
                                    },
                                    {
                                        "size": "3"
                                    },
                                    {
                                        "size": "64"
                                    },
                                    {
                                        "size": "64"
                                    }
                                ]
                            }
                        }
                    },
                    "dtype": {
                        "type": "DT_FLOAT"
                    }
                }
            },
            {
                "name": "unknown_74",
                "op": "Const",
                "attr": {
                    "value": {
                        "tensor": {
                            "dtype": "DT_FLOAT",
                            "tensorShape": {
                                "dim": [
                                    {
                                        "size": "64"
                                    }
                                ]
                            }
                        }
                    },
                    "dtype": {
                        "type": "DT_FLOAT"
                    }
                }
            },
            {
                "name": "StatefulPartitionedCall/transpose_123/perm",
                "op": "Const",
                "attr": {
                    "value": {
                        "tensor": {
                            "dtype": "DT_INT32",
                            "tensorShape": {
                                "dim": [
                                    {
                                        "size": "4"
                                    }
                                ]
                            }
                        }
                    },
                    "dtype": {
                        "type": "DT_INT32"
                    }
                }
            },
            {
                "name": "StatefulPartitionedCall/Const_25",
                "op": "Const",
                "attr": {
                    "dtype": {
                        "type": "DT_INT32"
                    },
                    "value": {
                        "tensor": {
                            "dtype": "DT_INT32",
                            "tensorShape": {
                                "dim": [
                                    {
                                        "size": "4"
                                    },
                                    {
                                        "size": "2"
                                    }
                                ]
                            }
                        }
                    }
                }
            },
            {
                "name": "StatefulPartitionedCall/transpose_125/perm",
                "op": "Const",
                "attr": {
                    "value": {
                        "tensor": {
                            "dtype": "DT_INT32",
                            "tensorShape": {
                                "dim": [
                                    {
                                        "size": "4"
                                    }
                                ]
                            }
                        }
                    },
                    "dtype": {
                        "type": "DT_INT32"
                    }
                }
            },
            {
                "name": "StatefulPartitionedCall/split_38",
                "op": "Const",
                "attr": {
                    "value": {
                        "tensor": {
                            "dtype": "DT_FLOAT",
                            "tensorShape": {
                                "dim": [
                                    {
                                        "size": "3"
                                    },
                                    {
                                        "size": "3"
                                    },
                                    {
                                        "size": "64"
                                    },
                                    {
                                        "size": "64"
                                    }
                                ]
                            }
                        }
                    },
                    "dtype": {
                        "type": "DT_FLOAT"
                    }
                }
            },
            {
                "name": "unknown_76",
                "op": "Const",
                "attr": {
                    "value": {
                        "tensor": {
                            "dtype": "DT_FLOAT",
                            "tensorShape": {
                                "dim": [
                                    {
                                        "size": "64"
                                    }
                                ]
                            }
                        }
                    },
                    "dtype": {
                        "type": "DT_FLOAT"
                    }
                }
            },
            {
                "name": "StatefulPartitionedCall/transpose_126/perm",
                "op": "Const",
                "attr": {
                    "value": {
                        "tensor": {
                            "dtype": "DT_INT32",
                            "tensorShape": {
                                "dim": [
                                    {
                                        "size": "4"
                                    }
                                ]
                            }
                        }
                    },
                    "dtype": {
                        "type": "DT_INT32"
                    }
                }
            },
            {
                "name": "StatefulPartitionedCall/onnx_tf_prefix_/model.18/Concat/axis",
                "op": "Const",
                "attr": {
                    "value": {
                        "tensor": {
                            "dtype": "DT_INT32",
                            "tensorShape": {}
                        }
                    },
                    "dtype": {
                        "type": "DT_INT32"
                    }
                }
            },
            {
                "name": "StatefulPartitionedCall/transpose_128/perm",
                "op": "Const",
                "attr": {
                    "value": {
                        "tensor": {
                            "dtype": "DT_INT32",
                            "tensorShape": {
                                "dim": [
                                    {
                                        "size": "4"
                                    }
                                ]
                            }
                        }
                    },
                    "dtype": {
                        "type": "DT_INT32"
                    }
                }
            },
            {
                "name": "StatefulPartitionedCall/split_39",
                "op": "Const",
                "attr": {
                    "value": {
                        "tensor": {
                            "dtype": "DT_FLOAT",
                            "tensorShape": {
                                "dim": [
                                    {
                                        "size": "1"
                                    },
                                    {
                                        "size": "1"
                                    },
                                    {
                                        "size": "192"
                                    },
                                    {
                                        "size": "128"
                                    }
                                ]
                            }
                        }
                    },
                    "dtype": {
                        "type": "DT_FLOAT"
                    }
                }
            },
            {
                "name": "unknown_78",
                "op": "Const",
                "attr": {
                    "value": {
                        "tensor": {
                            "dtype": "DT_FLOAT",
                            "tensorShape": {
                                "dim": [
                                    {
                                        "size": "128"
                                    }
                                ]
                            }
                        }
                    },
                    "dtype": {
                        "type": "DT_FLOAT"
                    }
                }
            },
            {
                "name": "StatefulPartitionedCall/transpose_129/perm",
                "op": "Const",
…
                    ],
                    "dtype": "int32"
                },
                {
                    "name": "StatefulPartitionedCall/transpose_25/perm",
                    "shape": [
                        4
                    ],
                    "dtype": "int32"
                },
                {
                    "name": "StatefulPartitionedCall/split_8",
                    "shape": [
                        3,
                        3,
                        32,
                        32
                    ],
                    "dtype": "float32",
                    "quantization": {
                        "dtype": "uint8",
                        "min": -0.7315769139458151,
                        "scale": 0.0053012819851146024,
                        "original_dtype": "float32"
                    }
                },
                {
                    "name": "unknown_16",
                    "shape": [
                        32
                    ],
                    "dtype": "float32",
                    "quantization": {
                        "dtype": "uint8",
                        "min": -1.8594925543841192,
                        "scale": 0.03206021645489861,
                        "original_dtype": "float32"
                    }
                },
                {
                    "name": "StatefulPartitionedCall/transpose_26/perm",
                    "shape": [
                        4
                    ],
                    "dtype": "int32"
                },
                {
                    "name": "StatefulPartitionedCall/Const_6",
                    "shape": [
                        4,
                        2
                    ],
                    "dtype": "int32"
                },
                {
                    "name": "StatefulPartitionedCall/transpose_28/perm",
                    "shape": [
                        4
                    ],
                    "dtype": "int32"
                },
                {
                    "name": "StatefulPartitionedCall/split_9",
                    "shape": [
                        3,
                        3,
                        32,
                        32
                    ],
                    "dtype": "float32",
                    "quantization": {
                        "dtype": "uint8",
                        "min": -0.7458669573652978,
                        "scale": 0.005693640895918304,
                        "original_dtype": "float32"
                    }
                },
                {
                    "name": "unknown_18",
                    "shape": [
                        32
                    ],
                    "dtype": "float32",
                    "quantization": {
                        "dtype": "uint8",
                        "min": -1.848198460597618,
                        "scale": 0.01490482629514208,
                        "original_dtype": "float32"
                    }
                },
                {
                    "name": "StatefulPartitionedCall/transpose_29/perm",
                    "shape": [
                        4
                    ],
                    "dtype": "int32"
                },
                {
                    "name": "StatefulPartitionedCall/Const_7",
                    "shape": [
                        4,
                        2
                    ],
                    "dtype": "int32"
                },
                {
                    "name": "StatefulPartitionedCall/transpose_31/perm",
                    "shape": [
                        4
                    ],
                    "dtype": "int32"
                },
                {
                    "name": "StatefulPartitionedCall/split_10",
                    "shape": [
                        3,
                        3,
                        32,
                        32
                    ],
                    "dtype": "float32",
                    "quantization": {
                        "dtype": "uint8",
                        "min": -0.4053411858923295,
                        "scale": 0.0028747601836335425,
                        "original_dtype": "float32"
                    }
                },
                {
                    "name": "unknown_20",
                    "shape": [
                        32
                    ],
                    "dtype": "float32",
                    "quantization": {
                        "dtype": "uint8",
                        "min": -2.020446692261041,
                        "scale": 0.017880059223549037,
                        "original_dtype": "float32"
                    }
                },
                {
                    "name": "StatefulPartitionedCall/transpose_32/perm",
                    "shape": [
                        4
                    ],
                    "dtype": "int32"
                },
                {
                    "name": "StatefulPartitionedCall/Const_8",
                    "shape": [
                        4,
                        2
                    ],
                    "dtype": "int32"
                },
                {
                    "name": "StatefulPartitionedCall/transpose_34/perm",
                    "shape": [
                        4
                    ],
                    "dtype": "int32"
                },
                {
                    "name": "StatefulPartitionedCall/split_11",
                    "shape": [
                        3,
                        3,
                        32,
                        32
                    ],
                    "dtype": "float32",
                    "quantization": {
                        "dtype": "uint8",
                        "min": -1.182141653696696,
                        "scale": 0.009933963476442823,
                        "original_dtype": "float32"
                    }
                },
                {
                    "name": "unknown_22",
                    "shape": [
                        32
                    ],
                    "dtype": "float32",
                    "quantization": {
                        "dtype": "uint8",
                        "min": -3.0327766502604763,
                        "scale": 0.0238801311044132,
                        "original_dtype": "float32"
                    }
                },
                {
                    "name": "StatefulPartitionedCall/transpose_35/perm",
                    "shape": [
                        4
                    ],
                    "dtype": "int32"
                },
                {
                    "name": "StatefulPartitionedCall/onnx_tf_prefix_/model.4/Concat/axis",
                    "shape": [],
                    "dtype": "int32"
                },
                {
                    "name": "StatefulPartitionedCall/transpose_37/perm",
                    "shape": [
                        4
                    ],
                    "dtype": "int32"
                },
                {
                    "name": "StatefulPartitionedCall/split_12",
                    "shape": [
                        1,
                        1,
                        128,
                        64
                    ],
                    "dtype": "float32",
                    "quantization": {
                        "dtype": "uint8",
                        "min": -0.7293756428886862,
                        "scale": 0.004341521683861227,
                        "original_dtype": "float32"
                    }
                },
                {
                    "name": "unknown_24",
                    "shape": [
                        64
                    ],
                    "dtype": "float32",
                    "quantization": {
                        "dtype": "uint8",
                        "min": -2.098624902613023,
                        "scale": 0.022090788448558135,
                        "original_dtype": "float32"
                    }
                },
                {
                    "name": "StatefulPartitionedCall/transpose_38/perm",
                    "shape": [
                        4
                    ],
                    "dtype": "int32"
                },
                {
                    "name": "StatefulPartitionedCall/Const_9",
                    "shape": [
                        4,
                        2
                    ],
                    "dtype": "int32"
                },
                {
                    "name": "StatefulPartitionedCall/transpose_40/perm",
                    "shape": [
                        4
                    ],
                    "dtype": "int32"
                },
                {
                    "name": "StatefulPartitionedCall/split_13",
                    "shape": [
                        3,
                        3,
                        64,
                        128
                    ],
                    "dtype": "float32",
                    "quantization": {
                        "dtype": "uint8",
                        "min": -0.7796266499687644,
                        "scale": 0.005775012221990847,
                        "original_dtype": "float32"
                    }
                },
                {
                    "name": "unknown_26",
                    "shape": [
                        128
                    ],
                    "dtype": "float32",
                    "quantization": {
                        "dtype": "uint8",
                        "min": -3.2543840015635768,
                        "scale": 0.019031485389260683,
                        "original_dtype": "float32"
                    }
                },
                {
                    "name": "StatefulPartitionedCall/transpose_41/perm",
                    "shape": [
                        4
                    ],
                    "dtype": "int32"
                },
                {
                    "name": "StatefulPartitionedCall/transpose_43/perm",
                    "shape": [
                        4
                    ],
                    "dtype": "int32"
                },
                {
                    "name": "StatefulPartitionedCall/split_14",
                    "shape": [
                        1,
                        1,
                        128,
                        128
                    ],
                    "dtype": "float32",
                    "quantization": {
                        "dtype": "uint8",
                        "min": -2.0000258614035213,
                        "scale": 0.01212136885699104,
                        "original_dtype": "float32"
                    }
                },
                {
                    "name": "unknown_28",
                    "shape": [
                        128
                    ],
                    "dtype": "float32",
                    "quantization": {
                        "dtype": "uint8",
                        "min": -4.201170158386231,
                        "scale": 0.02745862848618451,
                        "original_dtype": "float32"
                    }
                },
                {
                    "name": "StatefulPartitionedCall/transpose_44/perm",
                    "shape": [
                        4
                    ],
                    "dtype": "int32"
                },
                {
                    "name": "StatefulPartitionedCall/onnx_tf_prefix_Constant_54",
                    "shape": [
                        2
                    ],
                    "dtype": "int32"
                },
                {
                    "name": "StatefulPartitionedCall/onnx_tf_prefix_/model.6/Split/split_dim",
                    "shape": [],
                    "dtype": "int32"
                },
                {
                    "name": "StatefulPartitionedCall/Const_10",
                    "shape": [
                        4,
                        2
                    ],
                    "dtype": "int32"
                },
                {
                    "name": "StatefulPartitionedCall/transpose_46/perm",
                    "shape": [
                        4
                    ],
                    "dtype": "int32"
                },
                {
                    "name": "StatefulPartitionedCall/split_15",
                    "shape": [
                        3,
                        3,
                        64,
                        64
                    ],
                    "dtype": "float32",
                    "quantization": {
                        "dtype": "uint8",
                        "min": -0.6868837805355297,
                        "scale": 0.005451458575678807,
                        "original_dtype": "float32"
                    }
                },
                {
                    "name": "unknown_30",
                    "shape": [
                        64
                    ],
                    "dtype": "float32",
                    "quantization": {
                        "dtype": "uint8",
                        "min": -1.860833556511823,
                        "scale": 0.02416666956508861,
                        "original_dtype": "float32"
                    }
                },
                {
                    "name": "StatefulPartitionedCall/transpose_47/perm",
                    "shape": [
                        4
                    ],
                    "dtype": "int32"
                },
                {
                    "name": "StatefulPartitionedCall/Const_11",
                    "shape": [
                        4,
                        2
                    ],
                    "dtype": "int32"
                },
                {
                    "name": "StatefulPartitionedCall/transpose_49/perm",
                    "shape": [
                        4
                    ],
                    "dtype": "int32"
                },
                {
                    "name": "StatefulPartitionedCall/split_16",
                    "shape": [
                        3,
                        3,
                        64,
                        64
                    ],
                    "dtype": "float32",
                    "quantization": {
                        "dtype": "uint8",
                        "min": -0.7492515563964843,
                        "scale": 0.006403859456380208,
                        "original_dtype": "float32"
                    }
                },
                {
                    "name": "unknown_32",
                    "shape": [
                        64
                    ],
                    "dtype": "float32",
                    "quantization": {
                        "dtype": "uint8",
                        "min": -2.6906855115703507,
                        "scale": 0.014865665809780944,
                        "original_dtype": "float32"
                    }
                },
                {
                    "name": "StatefulPartitionedCall/transpose_50/perm",
                    "shape": [
                        4
                    ],
                    "dtype": "int32"
                },
                {
                    "name": "StatefulPartitionedCall/Const_12",
                    "shape": [
                        4,
                        2
                    ],
                    "dtype": "int32"
                },
                {
                    "name": "StatefulPartitionedCall/transpose_52/perm",
                    "shape": [
                        4
                    ],
                    "dtype": "int32"
                },
                {
                    "name": "StatefulPartitionedCall/split_17",
                    "shape": [
                        3,
                        3,
                        64,
                        64
                    ],
                    "dtype": "float32",
                    "quantization": {
                        "dtype": "uint8",
                        "min": -0.36284490566627653,
                        "scale": 0.002857046501309264,
                        "original_dtype": "float32"
                    }
                },
                {
                    "name": "unknown_34",
                    "shape": [
                        64
                    ],
                    "dtype": "float32",
                    "quantization": {
                        "dtype": "uint8",
                        "min": -2.0751718661364387,
                        "scale": 0.016086603613460766,
                        "original_dtype": "float32"
                    }
                },
                {
                    "name": "StatefulPartitionedCall/transpose_53/perm",
                    "shape": [
                        4
                    ],
                    "dtype": "int32"
                },
                {
                    "name": "StatefulPartitionedCall/Const_13",
                    "shape": [
                        4,
                        2
                    ],
                    "dtype": "int32"
                },
                {
                    "name": "StatefulPartitionedCall/transpose_55/perm",
                    "shape": [
                        4
                    ],
                    "dtype": "int32"
                },
                {
                    "name": "StatefulPartitionedCall/split_18",
                    "shape": [
                        3,
                        3,
                        64,
                        64
                    ],
                    "dtype": "float32",
                    "quantization": {
                        "dtype": "uint8",
                        "min": -1.3360149720135857,
                        "scale": 0.010688119776108685,
                        "original_dtype": "float32"
                    }
                },
                {
                    "name": "unknown_36",
                    "shape": [
                        64
                    ],
                    "dtype": "float32",
                    "quantization": {
                        "dtype": "uint8",
                        "min": -2.539751381967582,
                        "scale": 0.02886081115872252,
                        "original_dtype": "float32"
                    }
                },
                {
                    "name": "StatefulPartitionedCall/transpose_56/perm",
                    "shape": [
                        4
                    ],
                    "dtype": "int32"
                },
                {
                    "name": "StatefulPartitionedCall/onnx_tf_prefix_/model.6/Concat/axis",
                    "shape": [],
                    "dtype": "int32"
                },
                {
                    "name": "StatefulPartitionedCall/transpose_58/perm",
                    "shape": [
                        4
                    ],
                    "dtype": "int32"
                },
                {
                    "name": "StatefulPartitionedCall/split_19",
                    "shape": [
                        1,
                        1,
                        256,
                        128
                    ],
                    "dtype": "float32",
                    "quantization": {
                        "dtype": "uint8",
                        "min": -0.5006673700669233,
                        "scale": 0.003550832411822151,
                        "original_dtype": "float32"
                    }
                },
                {
                    "name": "unknown_38",
                    "shape": [
                        128
                    ],
                    "dtype": "float32",
                    "quantization": {
                        "dtype": "uint8",
                        "min": -1.8606006650363698,
                        "scale": 0.014423260969274184,
                        "original_dtype": "float32"
                    }
                },
                {
                    "name": "StatefulPartitionedCall/transpose_59/perm",
                    "shape": [
                        4
                    ],
                    "dtype": "int32"
                },
                {
                    "name": "StatefulPartitionedCall/Const_14",
                    "shape": [
                        4,
                        2
                    ],
                    "dtype": "int32"
                },
                {
                    "name": "StatefulPartitionedCall/transpose_61/perm",
                    "shape": [
                        4
                    ],
                    "dtype": "int32"
                },
                {
                    "name": "StatefulPartitionedCall/split_20",
                    "shape": [
                        3,
                        3,
                        128,
                        256
                    ],
                    "dtype": "float32",
                    "quantization": {
                        "dtype": "uint8",
                        "min": -0.33808350563049316,
                        "scale": 0.003045797348022461,
                        "original_dtype": "float32"
                    }
                },
                {
                    "name": "unknown_40",
                    "shape": [
                        256
                    ],
                    "dtype": "float32",
                    "quantization": {
                        "dtype": "uint8",
                        "min": -3.9522226913302556,
                        "scale": 0.018129461886836035,
                        "original_dtype": "float32"
                    }
                },
                {
                    "name": "StatefulPartitionedCall/transpose_62/perm",
                    "shape": [
                        4
                    ],
                    "dtype": "int32"
                },
                {
                    "name": "StatefulPartitionedCall/transpose_64/perm",
                    "shape": [
                        4
                    ],
                    "dtype": "int32"
                },
                {
                    "name": "StatefulPartitionedCall/split_21",
                    "shape": [
                        1,
                        1,
                        256,
                        256
                    ],
                    "dtype": "float32",
                    "quantization": {
                        "dtype": "uint8",
                        "min": -1.1251672744750978,
                        "scale": 0.009455187180463006,
                        "original_dtype": "float32"
                    }
                },
                {
                    "name": "unknown_42",
                    "shape": [
                        256
                    ],
                    "dtype": "float32",
                    "quantization": {
                        "dtype": "uint8",
                        "min": -2.5596230862187404,
                        "scale": 0.01953910752838733,
                        "original_dtype": "float32"
                    }
                },
                {
                    "name": "StatefulPartitionedCall/transpose_65/perm",
                    "shape": [
                        4
                    ],
                    "dtype": "int32"
                },
                {
                    "name": "StatefulPartitionedCall/onnx_tf_prefix_/model.8/Split/split_dim",
                    "shape": [],
                    "dtype": "int32"
                },
                {
                    "name": "StatefulPartitionedCall/Const_15",
                    "shape": [
                        4,
                        2
                    ],
                    "dtype": "int32"
                },
                {
                    "name": "StatefulPartitionedCall/transpose_67/perm",
                    "shape": [
                        4
                    ],
                    "dtype": "int32"
                },
                {
                    "name": "StatefulPartitionedCall/split_22",
                    "shape": [
                        3,
                        3,
                        128,
                        128
                    ],
                    "dtype": "float32",
                    "quantization": {
                        "dtype": "uint8",
                        "min": -0.3803419505848604,
                        "scale": 0.004226021673165116,
                        "original_dtype": "float32"
                    }
                },
                {
                    "name": "unknown_44",
                    "shape": [
                        128
                    ],
                    "dtype": "float32",
                    "quantization": {
                        "dtype": "uint8",
                        "min": -2.98373046762803,
                        "scale": 0.02029748617434034,
                        "original_dtype": "float32"
                    }
                },
                {
                    "name": "StatefulPartitionedCall/transpose_68/perm",
                    "shape": [
                        4
                    ],
                    "dtype": "int32"
                },
                {
                    "name": "StatefulPartitionedCall/Const_16",
                    "shape": [
                        4,
                        2
                    ],
                    "dtype": "int32"
                },
                {
                    "name": "StatefulPartitionedCall/transpose_70/perm",
                    "shape": [
                        4
                    ],
                    "dtype": "int32"
                },
                {
                    "name": "StatefulPartitionedCall/split_23",
                    "shape": [
                        3,
                        3,
                        128,
                        128
                    ],
                    "dtype": "float32",
                    "quantization": {
                        "dtype": "uint8",
                        "min": -0.4920950459498985,
                        "scale": 0.003672351089178347,
                        "original_dtype": "float32"
                    }
                },
                {
                    "name": "unknown_46",
                    "shape": [
                        128
                    ],
                    "dtype": "float32",
                    "quantization": {
                        "dtype": "uint8",
                        "min": -1.9641451414893656,
                        "scale": 0.021823834905437395,
                        "original_dtype": "float32"
                    }
                },
                {
                    "name": "StatefulPartitionedCall/transpose_71/perm",
                    "shape": [
                        4
                    ],
                    "dtype": "int32"
                },
                {
                    "name": "StatefulPartitionedCall/onnx_tf_prefix_/model.8/Concat/axis",
                    "shape": [],
                    "dtype": "int32"
                },
                {
                    "name": "StatefulPartitionedCall/transpose_73/perm",
                    "shape": [
                        4
                    ],
                    "dtype": "int32"
                },
                {
                    "name": "StatefulPartitionedCall/split_24",
                    "shape": [
                        1,
                        1,
                        384,
                        256
                    ],
                    "dtype": "float32",
                    "quantization": {
                        "dtype": "uint8",
                        "min": -0.5121065139770508,
                        "scale": 0.004064337412516276,
                        "original_dtype": "float32"
                    }
                },
                {
                    "name": "unknown_48",
                    "shape": [
                        256
                    ],
                    "dtype": "float32",
                    "quantization": {
                        "dtype": "uint8",
                        "min": -2.0496076883054246,
                        "scale": 0.014332920897240732,
                        "original_dtype": "float32"
                    }
                },
                {
                    "name": "StatefulPartitionedCall/transpose_74/perm",
                    "shape": [
                        4
                    ],
                    "dtype": "int32"
                },
                {
                    "name": "StatefulPartitionedCall/transpose_76/perm",
                    "shape": [
                        4
                    ],
                    "dtype": "int32"
                },
                {
                    "name": "StatefulPartitionedCall/split_25",
                    "shape": [
                        1,
                        1,
                        256,
                        128
                    ],
                    "dtype": "float32",
                    "quantization": {
                        "dtype": "uint8",
                        "min": -0.7328943813548369,
                        "scale": 0.005125135533949908,
                        "original_dtype": "float32"
                    }
                },
                {
                    "name": "unknown_50",
                    "shape": [
                        128
                    ],
                    "dtype": "float32",
                    "quantization": {
                        "dtype": "uint8",
                        "min": -0.3005257132006626,
                        "scale": 0.013660259690939211,
                        "original_dtype": "float32"
                    }
                },
                {
                    "name": "StatefulPartitionedCall/transpose_77/perm",
                    "shape": [
                        4
                    ],
                    "dtype": "int32"
                },
                {
                    "name": "StatefulPartitionedCall/transpose_78/perm",
                    "shape": [
                        4
                    ],
                    "dtype": "int32"
                },
                {
                    "name": "StatefulPartitionedCall/transpose_83/perm",
                    "shape": [
                        4
                    ],
                    "dtype": "int32"
                },
                {
                    "name": "StatefulPartitionedCall/onnx_tf_prefix_/model.9/Concat/axis",
                    "shape": [],
                    "dtype": "int32"
                },
                {
                    "name": "StatefulPartitionedCall/transpose_85/perm",
                    "shape": [
                        4
                    ],
                    "dtype": "int32"
                },
                {
                    "name": "StatefulPartitionedCall/split_26",
                    "shape": [
                        1,
                        1,
                        512,
                        256
                    ],
                    "dtype": "float32",
                    "quantization": {
                        "dtype": "uint8",
                        "min": -0.5742292852962718,
                        "scale": 0.004745696572696461,
                        "original_dtype": "float32"
                    }
                },
                {
                    "name": "unknown_52",
                    "shape": [
                        256
                    ],
                    "dtype": "float32",
                    "quantization": {
                        "dtype": "uint8",
                        "min": -9.01530698701447,
                        "scale": 0.05530863182217467,
                        "original_dtype": "float32"
                    }
                },
                {
                    "name": "StatefulPartitionedCall/transpose_86/perm",
                    "shape": [
                        4
                    ],
                    "dtype": "int32"
                },
                {
                    "name": "StatefulPartitionedCall/onnx_tf_prefix_/model.20/Concat/axis",
                    "shape": [],
                    "dtype": "int32"
                },
                {
                    "name": "StatefulPartitionedCall/transpose_134/perm",
                    "shape": [
                        4
                    ],
                    "dtype": "int32"
                },
                {
                    "name": "StatefulPartitionedCall/split_41",
                    "shape": [
                        1,
                        1,
                        384,
                        256
                    ],
                    "dtype": "float32",
                    "quantization": {
                        "dtype": "uint8",
                        "min": -0.9749318796045641,
                        "scale": 0.006632189657173905,
                        "original_dtype": "float32"
                    }
                },
                {
                    "name": "unknown_82",
                    "shape": [
                        256
                    ],
                    "dtype": "float32",
                    "quantization": {
                        "dtype": "uint8",
                        "min": -2.8922643549302047,
                        "scale": 0.018540156121347465,
                        "original_dtype": "float32"
                    }
                },
                {
                    "name": "StatefulPartitionedCall/transpose_135/perm",
                    "shape": [
                        4
                    ],
                    "dtype": "int32"
                },
                {
                    "name": "StatefulPartitionedCall/onnx_tf_prefix_Constant_80",
                    "shape": [
                        2
                    ],
                    "dtype": "int32"
                },
                {
                    "name": "StatefulPartitionedCall/onnx_tf_prefix_/model.21/Split/split_dim",
                    "shape": [],
                    "dtype": "int32"
                },
                {
                    "name": "StatefulPartitionedCall/Const_27",
                    "shape": [
                        4,
                        2
                    ],
                    "dtype": "int32"
                },
                {
                    "name": "StatefulPartitionedCall/transpose_137/perm",
                    "shape": [
                        4
                    ],
                    "dtype": "int32"
                },
                {
                    "name": "StatefulPartitionedCall/split_42",
                    "shape": [
                        3,
                        3,
                        128,
                        128
                    ],
                    "dtype": "float32",
                    "quantization": {
                        "dtype": "uint8",
                        "min": -0.41572672900031593,
                        "scale": 0.00419925988889208,
                        "original_dtype": "float32"
                    }
                },
                {
                    "name": "unknown_84",
                    "shape": [
                        128
                    ],
                    "dtype": "float32",
                    "quantization": {
                        "dtype": "uint8",
                        "min": -3.3041467554429,
                        "scale": 0.02664634480195887,
                        "original_dtype": "float32"
                    }
                },
                {
                    "name": "StatefulPartitionedCall/transpose_138/perm",
                    "shape": [
                        4
                    ],
                    "dtype": "int32"
                },
                {
                    "name": "StatefulPartitionedCall/Const_28",
                    "shape": [
                        4,
                        2
                    ],
                    "dtype": "int32"
                },
                {
                    "name": "StatefulPartitionedCall/transpose_140/perm",
                    "shape": [
                        4
                    ],
                    "dtype": "int32"
                },
                {
                    "name": "StatefulPartitionedCall/split_43",
                    "shape": [
                        3,
                        3,
                        128,
                        128
                    ],
                    "dtype": "float32",
                    "quantization": {
                        "dtype": "uint8",
                        "min": -0.6203417525571936,
                        "scale": 0.003951221353867475,
                        "original_dtype": "float32"
                    }
                },
                {
                    "name": "unknown_86",
                    "shape": [
                        128
                    ],
                    "dtype": "float32",
                    "quantization": {
                        "dtype": "uint8",
                        "min": -4.374493458691766,
                        "scale": 0.030168920404770795,
                        "original_dtype": "float32"
                    }
                },
                {
                    "name": "StatefulPartitionedCall/transpose_141/perm",
                    "shape": [
                        4
                    ],
                    "dtype": "int32"
                },
                {
                    "name": "StatefulPartitionedCall/onnx_tf_prefix_/model.21/Concat/axis",
                    "shape": [],
                    "dtype": "int32"
                },
                {
                    "name": "StatefulPartitionedCall/transpose_143/perm",
                    "shape": [
                        4
                    ],
                    "dtype": "int32"
                },
                {
                    "name": "StatefulPartitionedCall/split_44",
                    "shape": [
                        1,
                        1,
                        384,
                        256
                    ],
                    "dtype": "float32",
                    "quantization": {
                        "dtype": "uint8",
                        "min": -1.2877624221876554,
                        "scale": 0.007900382958206475,
                        "original_dtype": "float32"
                    }
                },
                {
                    "name": "unknown_88",
                    "shape": [
                        256
                    ],
                    "dtype": "float32",
                    "quantization": {
                        "dtype": "uint8",
                        "min": -2.6683688163757324,
                        "scale": 0.014824271202087402,
                        "original_dtype": "float32"
                    }
                },
                {
                    "name": "StatefulPartitionedCall/transpose_144/perm",
                    "shape": [
                        4
                    ],
                    "dtype": "int32"
                },
                {
                    "name": "StatefulPartitionedCall/Const_39",
                    "shape": [
                        4,
                        2
                    ],
                    "dtype": "int32"
                },
                {
                    "name": "StatefulPartitionedCall/transpose_191/perm",
                    "shape": [
                        4
                    ],
                    "dtype": "int32"
                },
                {
                    "name": "StatefulPartitionedCall/split_60",
                    "shape": [
                        3,
                        3,
                        256,
                        64
                    ],
                    "dtype": "float32",
                    "quantization": {
                        "dtype": "uint8",
                        "min": -0.4272759381462546,
                        "scale": 0.0032369389253504134,
                        "original_dtype": "float32"
                    }
                },
                {
                    "name": "unknown_120",
                    "shape": [
                        64
                    ],
                    "dtype": "float32",
                    "quantization": {
                        "dtype": "uint8",
                        "min": -1.311534537521063,
                        "scale": 0.014903801562739353,
                        "original_dtype": "float32"
                    }
                },
                {
                    "name": "StatefulPartitionedCall/transpose_192/perm",
                    "shape": [
                        4
                    ],
                    "dtype": "int32"
                },
                {
                    "name": "StatefulPartitionedCall/Const_40",
                    "shape": [
                        4,
                        2
                    ],
                    "dtype": "int32"
                },
                {
                    "name": "StatefulPartitionedCall/transpose_194/perm",
                    "shape": [
                        4
                    ],
                    "dtype": "int32"
                },
                {
                    "name": "StatefulPartitionedCall/split_61",
                    "shape": [
                        3,
                        3,
                        64,
                        64
                    ],
                    "dtype": "float32",
                    "quantization": {
                        "dtype": "uint8",
                        "min": -0.3228219583922741,
                        "scale": 0.0024642897587196498,
                        "original_dtype": "float32"
                    }
                },
                {
                    "name": "unknown_122",
                    "shape": [
                        64
                    ],
                    "dtype": "float32",
                    "quantization": {
                        "dtype": "uint8",
                        "min": 0.09567848592996597,
                        "scale": 0.006867564279659122,
                        "original_dtype": "float32"
                    }
                },
                {
                    "name": "StatefulPartitionedCall/transpose_195/perm",
                    "shape": [
                        4
                    ],
                    "dtype": "int32"
                },
                {
                    "name": "StatefulPartitionedCall/transpose_197/perm",
                    "shape": [
                        4
                    ],
                    "dtype": "int32"
                },
                {
                    "name": "StatefulPartitionedCall/split_62",
                    "shape": [
                        1,
                        1,
                        64,
                        8
                    ],
                    "dtype": "float32",
                    "quantization": {
                        "dtype": "uint8",
                        "min": -0.2344649969362745,
                        "scale": 0.0011272355621936275,
                        "original_dtype": "float32"
                    }
                },
                {
                    "name": "unknown_124",
                    "shape": [
                        8
                    ],
                    "dtype": "float32",
                    "quantization": {
                        "dtype": "uint8",
                        "min": -6.921875,
                        "scale": 0.00029105392156862745,
                        "original_dtype": "float32"
                    }
                },
                {
                    "name": "StatefulPartitionedCall/transpose_198/perm",
                    "shape": [
                        4
                    ],
                    "dtype": "int32"
                },
                {
                    "name": "StatefulPartitionedCall/onnx_tf_prefix_/model.22/Concat_2/axis",
                    "shape": [],
                    "dtype": "int32"
                },
                {
                    "name": "StatefulPartitionedCall/onnx_tf_prefix_/model.22/Constant_2",
                    "shape": [
                        3
                    ],
                    "dtype": "int32"
                },
                {
                    "name": "StatefulPartitionedCall/Where_2",
                    "shape": [
                        0,
                        1
                    ],
                    "dtype": "int32"
                },
                {
                    "name": "StatefulPartitionedCall/Cast_6",
                    "shape": [
                        1
                    ],
                    "dtype": "int32"
                },
                {
                    "name": "StatefulPartitionedCall/GatherV2_2",
                    "shape": [
                        0
                    ],
                    "dtype": "int32"
                },
                {
                    "name": "StatefulPartitionedCall/zeros_2",
                    "shape": [],
                    "dtype": "int32"
                },
                {
                    "name": "StatefulPartitionedCall/onnx_tf_prefix_/model.22/Concat_3/axis",
                    "shape": [],
                    "dtype": "int32"
                },
                {
                    "name": "StatefulPartitionedCall/onnx_tf_prefix_Constant_225",
                    "shape": [
                        2
                    ],
                    "dtype": "int32"
                },
                {
                    "name": "StatefulPartitionedCall/onnx_tf_prefix_/model.22/Split/split_dim",
                    "shape": [],
                    "dtype": "int32"
                },
                {
                    "name": "StatefulPartitionedCall/onnx_tf_prefix_/model.22/Concat_5/axis",
                    "shape": [],
                    "dtype": "int32"
                },
                {
                    "name": "StatefulPartitionedCall/assert_equal_1/Assert/AssertGuard/pivot_t/_134",
                    "shape": [],
                    "dtype": "bool"
                },
                {
                    "name": "StatefulPartitionedCall/LogicalAnd",
                    "shape": [
                        1
                    ],
                    "dtype": "bool"
                },
                {
                    "name": "StatefulPartitionedCall/assert_equal_1/y",
                    "shape": [],
                    "dtype": "bool"
                },
                {
                    "name": "StatefulPartitionedCall/assert_equal_1/All",
                    "shape": [],
                    "dtype": "bool"
                },
                {
                    "name": "StatefulPartitionedCall/SelectV2_5",
                    "shape": [
                        1
                    ],
                    "dtype": "int32"
                },
                {
                    "name": "StatefulPartitionedCall/SelectV2_6",
                    "shape": [
                        1
                    ],
                    "dtype": "int32"
                },
                {
                    "name": "StatefulPartitionedCall/SelectV2_2",
                    "shape": [
                        1
                    ],
                    "dtype": "int32"
                }
            ]
        }
    ]
}